code/final/models/neural_net/model_artifacts/food_security_model.pth (torch, 86266 bytes, 19 tensors)

layer1.weight f4 [128, 64]
0.19115147 0.1685624 -0.07912516 0.0205088 -0.23094349 -0.021877382 0.117283486 0.26840243
-0.3179635 -0.05647563 -0.12983344 0.009196371 0.20069481 0.06424554 -0.543951 -0.08923126
0.03196729 -0.45307884 -0.079753496 -0.11341906 0.09340582 -1.040437 -0.112174794 -0.25110328
-0.31187397 -0.43099466 -0.36130133 0.12883751 -0.5249892 -0.015096486 0.33504045 -0.24562903
0.015866986 -0.8234481 -0.256226 -0.32191265 -0.7254444 -0.07094926 -0.6997962 -0.66454166
-0.11629349 -0.3770561 -0.87600696 0.0023579467 0.026291814 -0.16010702 -0.3678249 -0.48867527
-0.23754752 0.093925074 -0.8636783 -0.28649384 -0.84357435 -0.45825568 -0.20146279 -0.26142088
-0.06289414 0.064710125 -0.08283509 -0.29597262 -0.17238988 -0.25839266 -0.046197746 0.7587302
0.13216403 0.15363401 0.19793053 -0.18979433 -0.11049092 0.16802399 0.13388109 -0.8882245
0.3293214 0.11503305 0.27534664 -0.10701563 0.016866803 -0.12590861 -0.18720317 -0.24366584
-0.14044245 0.027925016 0.38433522 -0.41092643 0.023709534 -0.1807426 -0.054322682 -0.018378912
-0.28564173 -0.28474036 0.02433993 0.15555362 -0.11764622 0.31035143 0.15698364 -0.5738101
0.16070873 -0.18270925 -0.27036437 -0.08947746 -0.4944705 0.3650967 -0.15212269 -0.48256496
-0.05936358 -0.29367897 0.22751385 -0.24136801 -0.27311084 0.347265 -0.2027113 0.28830177
0.27573174 -0.32758832 -0.13545427 0.101229645 0.37266555 -0.07416701 -0.49178612 -0.10058455
-0.016096173 -0.060357306 -0.15788847 -0.22095864 -0.27600262 -0.5071368 -0.6177781 -0.19747452
0.10515526 -0.16142777 0.2505587 -0.12651779 -0.040198807 0.14137179 0.103231944 0.3692553
0.07638237 -0.7858042 -0.2099158 -0.17455463 0.28210443 -0.33030757 -0.037131026 -0.19358137
0.37680689 0.13038526 -0.27316484 0.14066887 0.2842045 -0.12916051 -0.07469712 0.33961204
0.034046873 -0.1798485 0.51868284 0.2904188 0.36542094 0.62637883 0.08997265 -0.056944072
0.055557325 -0.7668207 0.17707902 0.3022448 -0.18362062 0.44056413 -0.20382456 0.041244164
0.18612225 -0.11332468 0.2046695 -0.5624392 -0.10074162 -0.41474673 0.11906494 0.12636107
-0.50017005 0.02876019 0.3728651 0.13665777 -0.09947942 0.38234553 0.1616046 -0.19255576
0.009347839 -0.021618232 -0.14225698 -0.15415475 -0.14003083 -0.19028898 -0.2701968 -0.46843052
0.17997628 0.18436033 0.23578689 0.015572666 -0.015933042 0.15419735 0.20600083 0.13280775
-0.5283836 -0.15155253 0.08315646 -0.24025856 -0.3483873 -0.31752363 -0.49175104 0.048924096
-0.21600674 0.053282257 0.4477873 0.35619554 0.18029794 0.04013575 -0.65605754 0.06645956
-0.26992795 0.06655521 0.073006764 0.20172366 -0.16776785 0.28353626 0.046525627 -0.27760947
-0.16555019 -0.08758613 0.12681574 -0.3059804 -0.45676622 -0.3474344 -0.3141824 -0.14945291
0.13651226 0.21685024 -0.38500392 -0.10290598 -0.11990475 -0.10341984 -0.43226278 -0.065515384
0.4243617 -0.32966855 -0.15395579 0.28143895 0.15338813 -0.54945827 -0.7645064 -0.012906009
-0.5668549 0.24361582 0.079479225 0.09054468 0.020627463 -0.023523344 -0.55543286 -0.7070718
00000000: 36bd 433e 9f9b 2c3e 5f0c a2bd 1202 a83c
00000010: 737c 6cbe 3238 b3bc 5332 f03d 0b6c 893e
00000020: 1dcc a2be fd52 67bd 0ff3 04be 60ac 163c
00000030: f182 4d3e 2a93 833d 5f40 0bbf e1be b6bd
00000040: 22f0 023d f3f9 e7be cd55 a3bd 4148 e8bd
00000050: 8d4b bf3d 0a2d 85bf e6bb e5bd 9c90 80be
00000060: f2ad 9fbe 55ab dcbe 7dfc b8be fbed 033e
00000070: b165 06bf 4057 77bc 6c8a ab3e 2d86 7bbe
00000080: 7bfb 813c 7fcd 52bf 0e30 83be bcd1 a4be
00000090: b9b6 39bf d84d 91bd d825 33bf 671f 2abf
000000a0: 482b eebd 7f0d c1be fe41 60bf c887 1a3b
000000b0: ee61 d73c 18f3 23be 8c53 bcbe a533 fabe
000000c0: a83f 73be ca5b c03d 051a 5dbf 52af 92be
000000d0: 7df4 57bf 7da0 eabe 434c 4ebe f5d8 85be
000000e0: a5ce 80bd be86 843d 72a5 a9bd b989 97be
000000f0: f986 30be 0b4c 84be d939 3dbd 243c 423f
00000100: 0256 073e 3c52 1d3e 4dae 4a3e 7259 42be
00000110: 1049 e2bd 7b0e 2c3e 2018 093e ae62 63bf
00000120: d19c a83e 7396 eb3d 3cfa 8c3e 032b dbbd
00000130: 402c 8a3c 30ee 00be 30b2 3fbe 8a83 79be
00000140: 25d0 0fbe 01c3 e43c 96c7 c43e f364 d2be
00000150: 7f3a c23c 9714 39be 7681 5ebd 5f8f 96bc
00000160: a23f 92be 7dc9 91be 8864 c73c 7349 1f3e
00000170: 80f0 f0bd 62e6 9e3e 52c0 203e 38e5 12bf
00000180: d490 243e 2218 3bbe 336d 8abe f53f b7bd
00000190: 3d2b fdbe f4ed ba3e 0dc6 1bbe c112 f7be
000001a0: 3a27 73bd 175d 96be 64f9 683e 2d29 77be
000001b0: 2fd5 8bbe b8cc b13e 8d93 4fbe 4a9c 933e
000001c0: b62c 8d3e a8b9 a7be 86b4 0abe 7d51 cf3d
000001d0: 05ce be3e e0e4 97bd 64cb fbbe 46ff cdbd
000001e0: 1fdc 83bc 3939 77bd 84ad 21be fb42 62be
000001f0: 3750 8dbe b8d3 01bf b526 1ebf c336 4abe
00000200: a45b d73d 524d 25be 3b49 803e e18d 01be
00000210: 81a7 24bd c4c3 103e 456b d33d 080f bd3e
00000220: 5c6e 9c3d 772a 49bf 2bf4 56be 73be 32be
00000230: fe6f 903e 131e a9be b416 18bd 323a 46be
00000240: d5ec c03e b783 053e 43dc 8bbe 800b 103e
00000250: 4183 913e a742 04be cefa 98bd a1e1 ad3e
00000260: bc74 0b3d 352a 38be 66c8 043f c6b1 943e
00000270: 7418 bb3e 5d5a 203f 9543 b83d 303e 69bd
00000280: 1490 633d 5d4e 44bf 3454 353e d5bf 9a3e
00000290: 0b07 3cbe 9f91 e13e 63b7 50be a4ef 283d
000002a0: d596 3e3e c516 e8bd e294 513e 04fc 0fbf
000002b0: 9f51 cebd af59 d4be 52d8 f33d cc64 013e
000002c0: 250b 00bf 7d9a eb3c 2de8 be3e 04f0 0b3e
000002d0: debb cbbd cbc2 c33e ad7b 253e 562d 45be
000002e0: ae27 193c b818 b1bc d0ab 11be beda 1dbe
000002f0: 3e64 0fbe 1ddb 42be 3c57 8abe 20d6 efbe
00000300: b44b 383e f4c8 3c3e 1e72 713e 7f24 7f3c
00000310: 0386 82bc e9e5 1d3e e2f1 523e c1fe 073e
00000320: 2644 07bf 9630 1bbe ef4d aa3d 5706 76be
00000330: d25f b2be 7592 a2be cbc6 fbbe a264 483d
00000340: df30 5dbe 7f3e 5a3d 6144 e53e 435f b63e
00000350: 06a0 383e 6265 243d 63f3 27bf f31b 883d
00000360: ff33 8abe 194e 883d 9284 953d a690 4e3e
00000370: 56cb 2bbe aa2b 913e a891 3e3d d422 8ebe
00000380: fd85 29be 5b60 b3bd fcdb 013e 77a9 9cbe
00000390: 43dd e9be ece2 b1be 84dc a0be 2f0a 19be
000003a0: dfc9 0b3e fd0d 5e3e 3c1f c5be 5fc0 d2bd
000003b0: 9f90 f5bd c8cd d3bd 8c51 ddbe ee2c 86bd
000003c0: f045 d93e 51ca a8be 96a6 1dbe c418 903e
000003d0: c711 1d3e 4ca9 0cbf b1b6 43bf ba73 53bc
000003e0: 671d 11bf 6d76 793e 01c6 a23d 7d6f b93d
000003f0: edfa a83c 07b4 c0bc d930 0ebf a802 35bf

layer1.bias f4 [128]
0.001224056 -0.019087372 0.095297195 0.007984323 -0.071562335 0.01262186 -0.092540085 0.016740529
0.030626314 -0.12165439 -0.08448596 -0.06568267 -0.042745706 -0.025198923 0.05276374 -0.10157954
0.06512555 -0.08764092 0.10921257 -0.06896374 -0.09549725 0.09150244 0.1020895 -0.04058285
0.105429456 0.01646205 0.043694034 -0.005918088 -0.0344375 -0.048828565 -0.11022018 0.09145537
0.06620837 0.1121972 -0.1215526 0.12376286 0.083708026 0.03340538 -0.0545754 0.086085506
0.079500265 0.10606691 -0.10459788 0.019056166 0.048016544 -0.12269378 0.11589843 0.07740092
-0.10099024 -0.10587677 0.006979327 0.09994249 0.035367012 0.018012488 -0.009668978 -0.124640666
0.071787976 0.07655874 -0.08817677 -0.022094416 0.12187896 -0.045756064 -0.08515027 0.07289095
0.057375703 0.10804868 -0.053768106 0.030376885 0.02837805 0.10385015 0.07157183 0.028782729
-0.015505625 -0.025463957 -0.072902046 0.05438935 0.10976515 -0.061815996 -0.0828334 0.09260749
0.015371365 -0.060662027 0.08110286 -0.10244657 -0.065094784 -0.04243784 -0.004035955 0.026816657
0.0624722 -0.046849143 -0.014114071 -0.06814997 -0.083127804 0.026257923 0.09153219 0.110104464
-0.097129606 0.05712666 -0.037910037 -0.0064274142 -0.0055228164 0.10665182 0.105098374 -0.0989274
0.025325196 0.07156341 0.03245075 -0.0032354358 -0.05810961 -0.08625029 -0.12205765 -0.0010380951
-0.047918558 0.031277284 -0.052319143 0.10538447 -0.084708214 0.112493955 -0.050710894 0.01924487
-0.04849173 0.05333029 0.10077812 0.1167772 -0.08475817 0.08407687 0.08361704 -0.10310286
00000000: 8170 a03a 1f5d 9cbc 2d2b c33d aed0 023c
00000010: 468f 92bd ebcb 4e3c a885 bdbd 6f23 893c
00000020: 09e4 fa3c f025 f9bd fa06 adbd a384 86bd
00000030: 1f16 2fbd f96d cebc cb1e 583d ef08 d0bd
00000040: 8b60 853d 157d b3bd d7aa df3d dc3c 8dbd
00000050: 1094 c3bd a265 bb3d 4d14 d13d 343a 26bd
00000060: 66eb d73d 6cdb 863c 84f8 323d 85ec c1bb
00000070: 560e 0dbd 7600 48bd 1ebb e1bd f44c bb3d
00000080: 4198 873d a5c7 e53d 92f0 f8bd 6277 fd3d
00000090: 1d6f ab3d 14d4 083d 748a 5fbd 994d b03d
000000a0: 09d1 a23d 9c39 d93d 6a37 d6bd ad1b 9c3c
000000b0: ffac 443d e046 fbbd 285c ed3d 6084 9e3d
000000c0: f9d3 cebd ecd5 d8bd d7b2 e43b a6ae cc3d
000000d0: 00dd 103d ed8e 933c a26a 1ebc 9b43 ffbd
000000e0: 9305 933d d4ca 9c3d 0696 b4bd 59ff b4bc
000000f0: ad9b f93d b66a 3bbd 4463 aebd da47 953d
00000100: c902 6b3d a048 dd3d f23b 5cbd f2d8 f83c
00000110: 1679 e83c 63af d43d 4094 923d c2c9 eb3c
00000120: 4e0b 7ebc ca99 d0bc ab4d 95bd 5ec7 5e3d
00000130: 8dcc e03d c532 7dbd 8fa4 a9bd ffa8 bd3d
00000140: 2dd8 7b3c bf78 78bd 4219 a63d 82cf d1bd
00000150: 6a50 85bd 4dd3 2dbd 0b40 84bb 9bae db3c
00000160: d9e2 7f3d e3e4 3fbd b43e 67bc 3692 8bbd
00000170: e93e aabd db1a d73c 3b75 bb3d 737e e13d
00000180: e3eb c6bd a5fd 693d 8e47 1bbd 0f9d d2bb
00000190: bef8 b4bb 456c da3d d13d d73d 739a cabd
000001a0: c976 cf3c d68f 923d 14eb 043d 9b09 54bb
000001b0: 5804 6ebd fea3 b0bd 5cf9 f9bd b110 88ba
000001c0: 4046 44bd 9c1c 003d 994c 56bd d0d3 d73d
000001d0: 807b adbd 3b63 e63d 3ab6 4fbd 6ba7 9d3c
000001e0: 449f 46bd dd70 5a3d c264 ce3d e228 ef3d
000001f0: b195 adbd 7e30 ac3d 693f ab3d 9827 d3bd

bn1.weight f4 [128]
0.9165181 0.8048423 0.8644272 0.773472 0.89340174 1.0696205 1.0007485 0.9088329
0.9506335 0.85755205 0.96214324 1.0815067 0.7514178 1.1696887 0.8511804 0.98497355
0.9483395 1.0548241 0.8426646 0.9924765 1.0267776 1.4505148 0.82266057 0.98307353
0.90821135 0.8747124 0.9368058 0.9051431 0.929478 1.031536 1.0661411 1.0236083
0.71706796 0.9528951 0.91061115 0.9784401 0.9575194 0.8533567 0.87191147 0.8135365
0.81507695 0.98142207 0.84321254 0.8104616 0.871743 1.1038023 0.9492375 0.9240121
0.6986577 1.0003728 0.7323918 1.0689621 0.8982027 1.1124133 1.020515 0.97774935
0.78918886 1.109984 0.8761955 0.9166951 0.72696334 0.9383073 0.71661013 0.9055548
0.93030584 0.82646644 1.027733 1.0942518 1.0090078 1.4366853 0.83134776 0.93941027
0.8950816 0.85136116 0.82038224 0.87007207 0.9136045 0.87292546 0.9188447 0.83495796
1.0477027 0.8752792 0.81023085 1.1520532 0.78257495 0.88108945 0.9157341 0.838123
1.0580952 0.83967865 0.9385939 1.153119 0.82698405 0.9474402 1.1041504 0.8112679
0.89659 1.2077715 0.79959136 0.79497737 0.8534947 1.0366102 0.848959 0.9240484
0.7954775 0.9700577 1.0131536 0.7413581 0.6571571 0.869618 1.0057046 1.0372714
0.89314884 0.78684574 0.9331556 0.924608 0.9372091 0.8183778 0.89201957 0.9007776
0.87212056 0.7313906 0.8120122 0.87947774 0.872666 0.81362617 0.9941057 1.037437
00000000: eea0 6a3f 250a 4e3f 1a4b 5d3f 4302 463f
00000010: fab5 643f 53e9 883f 8718 803f 46a9 683f
00000020: b85c 733f 8888 5b3f 054f 763f d06e 8a3f
00000030: eb5c 403f 5cb8 953f f5e6 593f 3a27 7c3f
00000040: 61c6 723f 7a04 873f deb8 573f f112 7e3f
00000050: 736d 833f 78aa b93f e299 523f b5aa 7b3f
00000060: 8a80 683f 27ed 5f3f 81d2 6f3f 75b7 673f
00000070: 45f2 6d3f 5f09 843f 5077 883f 9905 833f
00000080: c491 373f eff0 733f d01d 693f 0d7b 7a3f
00000090: fe1f 753f 9675 5a3f 9735 5f3f ee43 503f
000000a0: e2a8 503f 7a3e 7b3f c7dc 573f 697a 4f3f
000000b0: 8d2a 5f3f 6549 8d3f 3b01 733f 0f8c 6c3f
000000c0: 3bdb 323f 370c 803f 077e 3b3f c0d3 883f
000000d0: 9df0 653f 8f63 8e3f 3ca0 823f c84d 7a3f
000000e0: 4808 4a3f f513 8e3f 594e 603f 88ac 6a3f
000000f0: 451a 3a3f e834 703f c373 373f 70d2 673f
00000100: 8628 6e3f 4e93 533f c18c 833f 7110 8c3f
00000110: 2b27 813f 4ee5 b73f 35d3 543f 317d 703f
00000120: 1124 653f cef2 593f 9204 523f 0bbd 5e3f
00000130: fce1 693f 0b78 5f3f 6839 6b3f cebf 553f
00000140: 1f1b 863f 4c12 603f 4a6b 4f3f 7b76 933f
00000150: d556 483f 148f 613f 8d6d 6a3f 3b8f 563f
00000160: aa6f 873f 2ef5 563f b147 703f 6799 933f
00000170: 3ab5 533f 718b 723f cd54 8d3f 41af 4f3f
00000180: ec86 653f 4298 9a3f 05b2 4c3f a383 4b3f
00000190: a17e 5a3f a5af 843f 6155 593f 708e 6c3f
000001a0: 6aa4 4b3f b455 783f 04af 813f a5c9 3d3f
000001b0: 733b 283f 499f 5e3f eeba 803f 4fc5 843f
000001c0: 67a5 643f b96e 493f 49e3 6e3f 1cb3 6c3f
000001d0: f0ec 6f3f 3581 513f 655b 643f 5c99 663f
000001e0: 4b43 5f3f 6a3c 3b3f 08e0 4f3f 7425 613f
000001f0: 0a67 5f3f ce49 503f b67d 7e3f bcca 843f

bn1.bias f4 [128]
-0.39053854 -0.64489174 -0.2174113 -0.5854127 -0.4970211 -0.537256 -0.47721863 -0.39780328
-0.59946084 -0.63793576 -0.08069383 -0.1897748 -0.43535832 -0.4515311 -0.3426875 -0.79156595
-0.42203328 -0.20303887 -0.68590313 -0.5131958 -0.64327633 -0.3718123 -0.7092257 -0.7386458
-0.1820889 -0.44953486 -0.6253156 -0.69691676 -0.68794245 -0.17464842 -0.4281941 -0.38002127
-0.37927437 -0.71691924 -0.7229079 -0.31653133 -0.5975314 -0.61052215 -0.4800191 -0.61158454
-0.5103539 -0.6408513 -0.5689376 -0.57179904 -0.3283548 -0.21673496 -0.6871303 -0.7901405
-0.44346642 -0.2681968 -0.5153362 -0.754516 -0.36499587 -0.7884603 -0.8014449 -0.3533233
-0.43493465 -0.30653098 -0.70503515 -0.22443332 -0.481298 -0.27119428 -0.37782994 -0.13148703
-0.67938256 -0.08042513 -0.3538391 -0.63429445 -0.06868974 -0.29974845 -0.4830803 -0.2148534
-0.011737253 -0.23738529 -0.34665912 -0.63911474 -0.5701703 -0.26628056 -0.6195965 -0.40279925
-0.7046641 -0.66158 -0.58445144 -0.63169396 -0.78135294 -0.32922253 -0.48641762 -0.35223538
-0.14276607 -0.4916829 -0.22598833 -0.67500716 -0.4785593 -0.74671596 -0.3866839 -0.31819004
-0.44353405 -0.42019898 -0.31627083 -0.4270617 -0.3533581 -0.7694101 -0.2662268 -0.13082579
-0.016858825 0.022157218 -0.49517635 -0.5329261 -0.26275763 -0.3579022 -0.30259043 -0.53078395
-0.94288063 -0.5802157 -0.056160845 -0.49517488 -0.58644295 -0.073758714 -0.55984193 -0.29812104
-0.89954853 -0.57028455 -0.3265817 -0.30447203 -0.73628324 -0.5319325 -0.557708 -0.8820907
00000000: abf4 c7be a017 25bf 11a1 5ebe 9bdd 15bf
00000010: 8d79 febe 9c89 09bf 0056 f4be dfac cbbe
00000020: 4476 19bf c24f 23bf cf42 a5bd 5354 42be
00000030: 49e7 debe 162f e7be bc74 afbe 11a4 4abf
00000040: bf14 d8be 6ce9 4fbe 5997 2fbf cd60 03bf
00000050: c2ad 24bf 2f5e bebe d18f 35bf e417 3dbf
00000060: 8375 3abe 6f29 e6be af14 20bf 2369 32bf
00000070: ff1c 30bf 09d7 32be 423c dbbe 2692 c2be
00000080: 4030 c2be 0588 37bf 7e10 39bf 6510 a2be
00000090: d1f7 18bf 2e4b 1cbf 10c5 f5be ce90 1cbf
000000a0: 8ea6 02bf d50e 24bf e5a5 11bf 6c61 12bf
000000b0: 1f1e a8be c5ef 5dbe c5e7 2fbf a646 4abf
000000c0: 080e e3be 1751 89be 13ed 03bf f627 41bf
000000d0: bde0 babe 89d8 49bf 7e2b 4dbf cbe6 b4be
000000e0: c1af debe a1f1 9cbe 2f7d 34bf d9d1 65be
000000f0: b16c f6be fad9 8abe ed72 c1be 89a4 06be
00000100: 04ec 2dbf eeb5 a4bd 662a b5be 1f61 22bf
00000110: 35ad 8cbd a178 99be 4d56 f7be 8802 5cbe
00000120: 9b4d 40bc 2115 73be 4e7d b1be 069d 23bf
00000130: aef6 11bf ed55 88be e09d 1ebf b43b cebe
00000140: de64 34bf 4f5d 29bf 9c9e 15bf b2b6 21bf
00000150: bf06 48bf db8f a8be bb0b f9be 3258 b4be
00000160: 4531 12be dcbd fbbe 7c69 67be 45cd 2cbf
00000170: b905 f5be c728 3fbf 6ffb c5be cee9 a2be
00000180: e516 e3be 5224 d7be 40ee a1be d5a7 dabe
00000190: 5aeb b4be 0ff8 44bf e14e 88be 32f7 05be
000001a0: 851b 8abc 0e83 b53c c187 fdbe d86d 08bf
000001b0: 2b88 86be f53e b7be 22ed 9abe 75e1 07bf
000001c0: a060 71bf 0489 14bf ea08 66bd 9087 fdbe
000001d0: 2021 16bf cf0e 97bd cd51 0fbf 52a3 98be
000001e0: d048 66bf 2bfe 11bf b735 a7be c2e3 9bbe
000001f0: 0f7d 3cbf ba2c 08bf f4c5 0ebf b2d0 61bf

bn1.running_mean f4 [128]
-0.37261355 -0.32157362 -0.024123156 -0.14285891 0.24451837 -0.09169643 -0.022673653 0.18861651
0.1276583 -0.51950085 -0.068576664 0.21668799 -0.166065 0.05510307 0.26986778 -0.15450853
0.2918707 -0.038462948 0.090398595 0.022882355 -0.08112188 0.088780314 0.13629445 -0.14863653
0.15278639 -0.31779593 -0.09124832 0.079455726 0.07477298 0.03596431 0.058174655 0.15492137
-0.14858831 -0.031299956 -0.10439807 -0.06776246 0.40948674 -0.17501625 -0.32896894 -0.18293813
-0.08647742 -0.2350595 -0.06034501 -0.11720052 0.26097697 0.028696636 0.20076564 0.30891234
-0.1478304 0.20740771 -0.021376725 0.12074621 0.10940491 -0.14524943 -0.34064278 -0.2356404
0.060481407 0.3200828 -0.3359579 0.15543722 -0.18648839 0.16791615 -0.2397719 0.106254324
-0.279702 0.16295832 -0.21686867 -0.18471548 -0.004434338 0.05168072 0.12973586 -0.08902843
0.058745183 0.04485102 0.021834683 -0.08165735 0.06401077 -0.13813491 -0.20220143 -0.03795612
0.2652819 -0.34869438 0.014032729 0.06069021 -0.1734029 -0.269642 0.28777084 -0.09878499
0.06831048 -0.35834557 -0.0043885633 0.22653937 0.011061294 -0.231662 -0.08096794 0.16958164
-0.39251697 0.30262113 -0.102754004 -0.15798025 0.08960086 0.11225133 0.17734331 -0.019077938
0.1302575 0.17921413 -0.16744192 -0.11308715 -0.14532991 0.182202 0.10340977 -0.34489742
-0.36748156 -0.18322578 -0.044808116 0.23799886 0.0027256515 0.14901038 0.088281974 -0.16035356
-0.15876438 -0.26553822 0.09197648 0.28140888 -0.13537943 0.076540224 0.29779112 -0.20250815
00000000: 34c7 bebe 4ca5 a4be ed9d c5bc 9b49 12be
00000010: 0663 7a3e 57cb bbbd 19be b9bc b024 413e
00000020: dbb8 023e 02fe 04bf ec71 8cbd 75e3 5d3e
00000030: f20c 2abe c2b3 613d 1c2c 8a3e 7c37 1ebe
00000040: 1470 953e 538b 1dbd e622 b93d c773 bb3c
00000050: 3a23 a6bd 74d2 b53d c690 0b3e 2d34 18be
00000060: 0974 1c3e 26b6 a2be 66e0 babd afb9 a23d
00000070: 9322 993d 504f 133d 8c48 6e3d b5a3 1e3e
00000080: 8927 18be 6234 00bd a8ce d5bd 0bc7 8abd
00000090: 3fa8 d13e 7637 33be 9e6e a8be 2254 3bbe
000000a0: 131b b1bd 70b3 70be 542c 77bd d406 f0bd
000000b0: c69e 853e 3515 eb3c 8295 4d3e c229 9e3e
000000c0: da60 17be b062 543e 3e1e afbc ca49 f73d
000000d0: ae0f e03d 44bc 14be bb68 aebe b84b 71be
000000e0: 5abb 773d e5e1 a33e ad02 acbe ef2a 1f3e
000000f0: d0f6 3ebe 36f2 2b3e c486 75be de9b d93d
00000100: 1a35 8fbe 8cde 263e d212 5ebe 0e26 3dbe
00000110: ec4d 91bb 2aaf 533d 7ad9 043e 8a54 b6bd
00000120: ca9e 703d b4b5 373d a6de b23c f83b a7bd
00000130: 1418 833d 3d73 0dbe e40d 4fbe e077 1bbd
00000140: 07d3 873e 1288 b2be 88e9 653c 4c96 783d
00000150: 8890 31be 840e 8abe b356 933e c94f cabd
00000160: 5de6 8b3d 1279 b7be f0cd 8fbb f0f9 673e
00000170: 6e3a 353c ce38 6dbe 85d2 a5bd cfa6 2d3e
00000180: fcf7 c8be 28f1 9a3e b170 d2bd 93c5 21be
00000190: a880 b73d 06e4 e53d 7c99 353e 5649 9cbc
000001a0: 3962 053e e983 373e e575 2bbe 3c9a e7bd
000001b0: 5dd1 14be 2993 3a3e 80c8 d33d 6596 b0be
000001c0: 8b26 bcbe 8a9f 3bbe b788 37bd f9b5 733e
000001d0: d8a0 323b 2d96 183e 2ecd b43d b933 24be
000001e0: 2193 22be a0f4 87be 2a5e bc3d d314 903e
000001f0: e8a0 0abe 1fc1 9c3d 1478 983e 4c5e 4fbe

bn1.running_var f4 [128]
0.18439654 0.14271334 0.15965328 0.22744256 0.11340795 0.20496415 0.12434462 0.28310496
0.2148395 0.1670702 0.22534212 0.16193874 0.41735715 0.5648681 0.14231995 0.21491839
0.17490573 0.18157597 0.25298014 0.55065465 0.20828368 5.5000076 0.23971352 0.23442087
1.0587708 0.22288434 0.14829275 0.11035363 0.18915409 0.8382084 0.2864582 0.21723112
0.14413626 0.18191725 0.23770393 0.15008603 0.21492375 0.29637828 0.24478006 0.22083075
0.26153192 0.21292713 0.47644255 0.2831101 0.1798774 0.9117829 0.2163966 0.13975549
0.1667069 0.41700053 0.27883214 0.14186202 0.24869612 0.18693669 0.18311583 0.13846791
0.15104109 0.1501814 0.17732655 0.19707121 0.31006807 0.44665578 0.5676898 0.43420634
0.24353085 0.5244637 0.17457497 0.24162507 0.1766234 5.1039257 0.14348711 0.15049982
0.3533343 0.53251266 0.33078858 0.26562595 0.1963615 0.37812993 0.19718963 0.2686658
0.2651224 0.15879351 0.36714783 0.3256362 0.15890984 0.20165038 0.11984602 0.2162046
0.7789491 0.13994147 0.5014468 0.0972504 0.17875488 0.22578269 0.7906103 0.3197739
0.32104954 1.1034868 0.5148117 0.20945182 0.20647568 0.16939442 0.50040996 0.39613387
0.30893812 0.27225715 0.21723269 0.62124527 1.2477721 0.12950426 0.19107585 0.2932472
0.10708517 0.25948462 0.12136464 0.12824704 0.09088687 0.32882252 0.16965339 0.5364898
0.20836242 0.22482274 0.30703777 0.38231722 0.24973643 0.24358532 0.12889336 0.17900635
00000000: 72d2 3c3e 7223 123e 267c 233e b4e6 683e
00000010: 6d42 e83d 1fe2 513e 64a8 fe3d 22f3 903e
00000020: e3fe 5b3e 7314 2b3e 16c0 663e 45d3 253e
00000030: d6af d53e 329b 103f 52bc 113e 9113 5c3e
00000040: 7d1a 333e 0def 393e 9d86 813e b4f7 0c3f
00000050: 5148 553e 1000 b040 7677 753e 060c 703e
00000060: cd85 873f cb3b 643e 0eda 173e 1501 e23d
00000070: 9cb1 413e d394 563f a6aa 923e d671 5e3e
00000080: 7598 133e 8448 3a3e a968 733e 27b0 193e
00000090: f914 5c3e e5be 973e a0a7 7a3e 7521 623e
000000a0: 83e7 853e 9209 5a3e 47f0 f33e cff3 903e
000000b0: c831 383e 9b6a 693f 1297 5d3e 101c 0f3e
000000c0: 37b5 2a3e 1881 d53e 16c3 8e3e 4744 113e
000000d0: 32aa 7e3e 556c 3f3e b782 3b3e 88ca 0d3e
000000e0: 84aa 1a3e 27c9 193e 1795 353e 09cd 493e
000000f0: 3ec1 9e3e 11b0 e43e 1e54 113f 4b50 de3e
00000100: 2760 793e 4143 063f c8c3 323e 906c 773e
00000110: c4dc 343e 5c53 a340 49ee 123e a01c 1a3e
00000120: 3ce8 b43e c052 083f 1f5d a93e 2000 883e
00000130: fd12 493e 3f9a c13e 14ec 493e 908e 893e
00000140: 20be 873e c49a 223e cdfa bb3e cab9 a63e
00000150: 43b9 223e 707d 4e3e d571 f53d bd64 5d3e
00000160: 3569 473f d14c 0f3e d15e 003f 382b c73d
00000170: 850b 373e 9433 673e 7065 4a3f 68b9 a33e
00000180: 9b60 a43e 0e3f 8d3f b3ca 033f 8a7a 563e
00000190: 5c6e 533e bb75 2d3e de1a 003f 0fd2 ca3e
000001a0: 232d 9e3e 4a65 8b3e 3f72 5e3e ee09 1f3f
000001b0: ffb6 9f3f c49c 043e 63a9 433e 7f24 963e
000001c0: 784f db3d 2bdb 843e 068e f83d 3153 033e
000001d0: e522 ba3d 6d5b a83e 9eb9 2d3e 6557 093f
000001e0: f55c 553e ef37 663e 0e34 9d3e 15bf c33e
000001f0: e8ba 7f3e 6e6e 793e 9ffc 033e 714d 373e

layer2.weight f4 [64, 128]
0.23770818 -0.68122476 0.12566331 -0.15935273 -0.026901595 -0.084679425 -0.12855439 0.10408519
0.47071177 -0.15957813 0.065142244 0.091479816 -0.15718462 0.17037228 0.20240304 0.1465626
0.23015213 0.08541585 -0.013777748 -0.024543364 0.19290958 -0.24083689 -0.18392009 -0.33294302
0.12887244 -0.55229 -0.6652405 0.3082494 -0.06502931 0.083209366 0.2575031 -0.09958604
-0.5939289 -0.12089922 0.38262582 0.086116545 0.2478289 -0.74988014 -0.17195393 -0.054395158
0.6998045 -0.22630794 0.17846452 -0.008606065 0.06819901 -0.048370406 0.17266223 -0.16748987
0.010712633 0.007987006 -0.11295683 0.32143733 0.1680186 0.5572437 0.20252301 -0.4296511
0.06273361 0.14095178 0.08738788 0.14391662 -0.27192366 -0.047328852 -0.21950583 0.0017918528
-0.4569971 -0.028643345 -0.08662664 0.2441441 -0.43472752 -0.25479224 0.050040964 0.35220444
-0.015764104 0.027204275 0.08653466 -0.43553472 -0.22214155 0.14312284 0.33487013 0.11868375
0.41694504 0.13619776 -0.17938434 -0.18047927 0.28731135 -0.5869099 0.03323733 -0.6127366
-0.002308641 -0.10346406 -0.026159212 -0.045510646 0.22736892 -0.20161349 -0.1427469 0.060723133
-0.64412946 0.0036772871 -0.376095 0.050406232 0.15615737 0.07164027 0.042829588 -0.14445727
-0.017338665 0.18999232 0.2226883 -0.08697085 -0.40050498 0.1134004 0.057182305 0.1544188
-0.45048404 0.12340405 0.06437242 0.39799026 0.3152088 0.17074473 -0.023410864 -0.078397796
0.20288378 0.09825814 -0.25833064 0.09582303 0.32033238 -0.31983662 -0.04905024 0.5005417
0.005013056 0.007310415 0.019036338 0.15277548 0.29090926 -0.12168982 -0.4224172 0.2571727
0.010238309 0.10751492 -0.5696012 0.17076816 0.06943648 -0.12745172 0.08583489 0.10833333
0.14039744 -0.117066965 0.370119 0.08157018 -0.1120642 -0.26792964 0.38271505 -0.06714388
0.3833186 -0.022616336 0.005789219 -0.5175631 -0.08039834 -0.39476287 -0.083071575 0.19596402
0.03166677 0.14084463 -0.052945074 -0.33230132 0.082929365 0.06041332 0.13118917 0.094087906
0.13594353 0.15251891 -0.1727339 0.08336893 -0.089843795 0.052646656 -0.62736064 -0.6576404
0.13804284 -0.18748076 0.18852106 0.5417476 0.4078929 0.29046175 0.1582485 -0.33199874
0.26691228 0.1990654 0.16355486 0.15580954 0.042329486 -0.27550927 -0.11625135 0.30138436
-0.13638529 0.09873189 -0.20741756 0.056625642 -0.45199218 -0.2032098 -0.05129787 -0.004310577
0.0017558853 0.19687077 -0.03953108 0.02689367 0.09280786 -0.24428163 0.23261008 -0.06394416
0.642609 0.28316054 -0.08701597 -0.42699 -0.4144501 -0.15795437 -0.17612334 0.04633553
-0.52996796 0.06221357 -0.022457814 -0.21043973 -0.26252398 0.25089133 -0.061919887 0.32044837
0.19863984 -0.3786586 0.0021051734 -0.05240916 -0.3288411 0.7225056 -0.04690849 -0.18277133
0.15423447 -0.18942513 0.14782259 -0.13690946 0.12752315 0.13280244 -0.098339 0.25791183
0.07279161 0.20782371 -0.29207498 0.07301361 0.3242882 0.21976227 -0.43386433 -0.12388716
-0.06895636 0.22430828 0.100537896 0.1107193 0.3515812 -0.27262515 -0.011651389 0.45881778
00000000: c669 733e bf64 2ebf e2ad 003e 5d2d 23be
00000010: bc60 dcbc 686c adbd c3a3 03be 9e2a d53d
00000020: 2201 f13e 7368 23be 4c69 853d c559 bb3d
00000030: 01f5 20be 1276 2e3e be42 4f3e 8214 163e
00000040: 00ad 6b3e 81ee ae3d 10bc 61bc 2a0f c9bc
00000050: 178a 453e f29d 76be 8c55 3cbe 8277 aabe
00000060: 23f7 033e e162 0dbf 344d 2abf ded2 9d3e
00000070: 162e 85bd ac69 aa3d 72d7 833e c4f3 cbbd
00000080: b90b 18bf 039a f7bd 88e7 c33e df5d b03d
00000090: dcc6 7d3e 25f8 3fbf b114 30be 75cd 5ebd
000000a0: 6326 333f 45bd 67be 67bf 363e 7400 0dbc
000000b0: ecab 8b3d 0c20 46bd 5ece 303e 7782 2bbe
000000c0: 0a84 2f3c eedb 023c e955 e7bd 6f93 a43e
000000d0: 110d 2c3e 86a7 0e3f 3162 4f3e 3bfb dbbe
000000e0: 7b7a 803d aa55 103e 6bf8 b23d e15e 133e
000000f0: 9439 8bbe e6db 41bd 23c6 60be 9adc ea3a
00000100: 86fb e9be 73a5 eabc 4f69 b1bd e900 7a3e
00000110: 9b94 debe 2174 82be c1f7 4c3d 2454 b43e
00000120: b923 81bc 80db de3c 1539 b13d 68fe debe
00000130: 1379 63be cb8e 123e 1974 ab3e 7710 f33d
00000140: d279 d53e 6d77 0b3e 87b0 37be 8fcf 38be
00000150: 791a 933e ba3f 16bf de23 083d 4edc 1cbf
00000160: 924c 17bb f7e4 d3bd d84b d6bc 5f69 3abd
00000170: 66d3 683e c473 4ebe 3e2c 12be d2b8 783d
00000180: abe5 24bf a4fe 703b 868f c0be c476 4e3d
00000190: b8e7 1f3e 22b8 923d 146e 2f3d 9bec 13be
000001a0: d109 8ebc 598d 423e 6708 643e c61d b2bd
000001b0: fd0e cdbe 783e e83d fe37 6a3d f61f 1e3e
000001c0: d8a5 e6be 43bb fc3d b0d5 833d 61c5 cb3e
000001d0: 0c63 a13e b5d7 2e3e 24c8 bfbc 068f a0bd
000001e0: c4c0 4f3e 903b c93d ea43 84be dd3e c43d
000001f0: 9b02 a43e a0c1 a3be e8e8 48bd 8023 003f
00000200: 9044 a43b 358c ef3b 18f2 9b3c 2d71 1c3e
00000210: 0ff2 943e 8338 f9bd 1147 d8be 24ac 833e
00000220: 95be 273c c830 dc3d 62d1 11bf d9dd 2e3e
00000230: b734 8e3d b482 02be 34ca af3d dddd dd3d
00000240: 59c4 0f3e cec0 efbd 3d80 bd3e 440e a73d
00000250: ea81 e5bd 132e 89be 3af3 c33e bb82 89bd
00000260: 5642 c43e e545 b9bc 7db3 bd3b 047f 04bf
00000270: e3a7 a4bd 5c1e cabe 6e21 aabd cbaa 483e
00000280: 04b5 013d 9339 103e efdc 58bd 6623 aabe
00000290: dfd6 a93d f573 773d 7456 063e 29b1 c03d
000002a0: c834 0b3e eb2d 1c3e 28e1 30be 54bd aa3d
000002b0: 0600 b8bd 05a4 573d b59a 20bf 1f5b 28bf
000002c0: 1a5b 0d3e f5fa 3fbe aa0b 413e f9af 0a3f
000002d0: 57d7 d03e 67b7 943e e50b 223e bdfb a9be
000002e0: baa8 883e cdd7 4b3e ed7a 273e 898c 1f3e
000002f0: af61 2d3d 8d0f 8dbe 3015 eebd 0d4f 9a3e
00000300: 96a8 0bbe f233 ca3d 4565 54be 4af0 673d
00000310: 856b e7be 3b16 50be b71d 52bd be3f 8dbb
00000320: bc25 e63a 7e98 493e 57eb 21bd 1d50 dc3c
00000330: 0c12 be3d f724 7abe 5631 6e3e 28f5 82bd
00000340: 0682 243f 6bfa 903e 6e35 b2bd 6f9e dabe
00000350: ce32 d4be cabe 21be ad59 34be 53ca 3d3d
00000360: fbab 07bf a8d3 7e3d 73f9 b7bc 837d 57be
00000370: 8b69 86be d474 803e b59f 7dbd cf11 a43e
00000380: 3e68 4b3e 8adf c1be f3f6 093b fdaa 56bd
00000390: dc5d a8be 21f6 383f 1e23 40bd 6828 3bbe
000003a0: a4ef 1d3e a9f8 41be ce5e 173e fe31 0cbe
000003b0: 6e95 023e 5dfd 073e f565 c9bd 050d 843e
000003c0: c513 953d bdcf 543e da8a 95be 2988 953d
000003d0: 1a09 a63e 5c09 613e 7723 debe 8db8 fdbd
000003e0: fe38 8dbd 12b1 653e d0e6 cd3d cdc0 e23d
000003f0: 7302 b43e 8695 8bbe 78e5 3ebc 2aea ea3e

layer2.bias f4 [64]
-0.0062208315 -0.04498235 -0.061575074 -0.03754105 -0.06809207 0.06743329 -0.06285012 0.05510827
0.07340631 -0.015953418 0.08208004 0.06322757 -0.060361784 0.05159031 0.022685774 0.07138885
-0.06503336 0.06598769 0.013370457 0.044637337 -0.04980097 0.057564914 -0.008098438 0.07349177
0.008840108 0.05447334 -0.054762375 -0.07818597 0.030591197 0.048314538 0.025148274 0.028282762
0.059033703 -0.04674118 0.047652498 0.042676974 -0.035360962 -0.054246984 -0.08888586 0.066142656
-0.00096376205 0.020292578 -0.064386435 -0.06690032 0.07196826 0.060631655 0.048099875 0.071157284
0.07193889 0.051102802 0.06466398 -0.012421204 0.020787602 -0.07551524 -0.032313876 -0.0076226117
-0.003459037 0.0871091 0.07190103 0.02814783 0.08307173 -0.04542702 0.016829625 -0.07012741
00000000: 1ed8 cbbb 6a3f 38bd 2536 7cbd a5c4 19bd
00000010: db73 8bbd 771a 8a3d 90b7 80bd 36b9 613d
00000020: 0c56 963d beb0 82bc 9419 a83d 757d 813d
00000030: eb3d 77bd 5c50 533d 84d7 b93c 5134 923d
00000040: 3630 85bd 8e24 873d c30f 5b3c a4d5 363d
00000050: 1afc 4bbd 30c9 6b3d 50af 04bc da82 963d
00000060: 1ad6 103c 701f 5f3d 834e 60bd f71f a0bd
00000070: 649a fa3c 77e5 453d c103 ce3c 40b1 e73c
00000080: 53cd 713d ae73 3fbd 442f 433d 0dce 2e3d
00000090: a8d6 10bd 1632 5ebd ca09 b6bd cd75 873d
000000a0: faa4 7cba 9f3c a63c 09dd 83bd 0903 89bd
000000b0: 1864 933d e658 783d 6004 453d e9ba 913d
000000c0: b254 933d 2c51 513d 8c6e 843d 4e82 4bbc
000000d0: c34a aa3c bca7 9abd 8e5b 04bd 1ac7 f9bb
000000e0: 03b1 62bb 4166 b23d d940 933d 4796 e63c
000000f0: 8321 aa3d af11 3abd 48de 893c f69e 8fbd

bn2.weight f4 [64]
1.1722026 0.65657103 1.1364058 0.8845304 0.81772053 0.9106003 0.9534371 1.0378407
0.89451426 0.7692111 1.1269383 1.1758074 0.8804642 1.0714836 0.966367 0.6995958
0.7587833 0.7418054 0.7137093 1.1275008 1.0610522 1.6985242 0.9137468 1.0154669
1.6058393 1.0148027 0.80067897 1.2740213 0.7964606 1.066683 1.3327706 1.4531981
1.0111568 1.1169611 1.0387543 1.0203758 0.96528405 1.0094973 1.5556985 0.7532227
1.0633885 1.0845914 0.951143 0.8409101 0.7436156 1.0508399 1.039866 0.80797064
1.1977805 0.7265919 1.0627637 0.7942058 1.173429 0.6331733 0.7562263 1.0394934
0.9068567 0.9896232 1.0102433 0.96360755 0.7714352 1.1026478 0.9470432 0.91159177
00000000: bc0a 963f 0a15 283f bf75 913f 9670 623f
00000010: 2256 513f 1a1d 693f 7414 743f f7d7 843f
00000020: e3fe 643f 05eb 443f 843f 903f db80 963f
00000030: 1a66 613f 6026 893f d463 773f b618 333f
00000040: 9f3f 423f f5e6 3d3f a7b5 363f f251 903f
00000050: 8fd0 873f 3e69 d93f 4feb 693f d2fa 813f
00000060: 248c cd3f 0ee5 813f 4cf9 4c3f 2113 a33f
00000070: d8e4 4b3f 1289 883f 3a98 aa3f 6502 ba3f
00000080: 966d 813f 95f8 8e3f e7f5 843f ad9b 823f
00000090: db1c 773f 3537 813f 2121 c73f 34d3 403f
000000a0: 1d1d 883f e4d3 8a3f 1c7e 733f e245 573f
000000b0: 985d 3e3f ec81 863f 541a 853f 2ad7 4e3f
000000c0: df50 993f ed01 3a3f a408 883f 1251 4b3f
000000d0: ec32 963f a517 223f 0c98 413f 1f0e 853f
000000e0: c327 683f f257 7d3f a74f 813f fcae 763f
000000f0: c77c 453f 9023 8d3f 6c71 723f 145e 693f

bn2.bias f4 [64]
-0.3089242 -0.27509886 -0.24930376 -0.51562625 -0.51341856 0.2595168 -0.39532796 -0.6830762
0.08196419 -0.33929035 -0.2079827 0.18030636 -0.09778874 -0.2419938 -0.14566614 0.015597867
-0.3447811 -0.36734653 -0.56121176 -0.07713978 -0.6522916 -0.06841198 -0.037912764 0.24712326
-0.101365104 0.21726975 0.0322596 -0.11437721 -0.049607743 -0.23882565 0.09296224 -0.10196139
-0.29989207 -0.4400453 0.02112427 -0.50855255 -0.22972128 -0.095472924 0.05070006 -0.46380773
7.697557e-05 -0.37004942 -0.6897623 0.0037231431 -0.28443706 -0.39661497 -0.5453996 -0.06931065
-0.3263494 -0.32699144 -0.3197546 0.30824092 -0.21665634 0.1304563 -0.32386768 -0.40031525
0.11198284 -0.847138 -0.4404036 -0.38295075 0.09422259 -0.31227404 -0.37105384 -0.2154029
00000000: 502b 9ebe c2d9 8cbe 7c49 7fbe 1500 04bf
00000010: 666f 03bf 63df 843e 6d68 cabe 15de 2ebf
00000020: d7dc a73d 77b7 adbe 6bf9 54be 3ba2 383e
00000030: 7745 c8bd 39cd 77be 8129 15be 328e 7f3c
00000040: 2687 b0be d814 bcbe 93ab 0fbf 76fb 9dbd
00000050: 95fc 26bf 951b 8cbd 6a4a 1bbd e10d 7d3e
00000060: 8298 cfbd f67b 5e3e a422 043d 993e eabd
00000070: 7d31 4bbd b68e 74be fd62 be3d 22d1 d0bd
00000080: 748b 99be 9e4d e1be ce0c ad3c 8030 02bf
00000090: 0e3c 6bbe 4f87 c3bd deaa 4f3d 3578 edbe
000000a0: f26d a138 1e77 bdbe 4394 30bf faff 733b
000000b0: bca1 91be 1e11 cbbe 4f9f 0bbf bef2 8dbd
000000c0: 4517 a7be 6c6b a7be e0b6 a3be c1d1 9d3e
000000d0: 29db 5dbe 5696 053e fcd1 a5be 1ff6 ccbe
000000e0: 4257 e53d 09de 58bf 957c e1be 1f12 c4be
000000f0: c6f7 c03d 62e2 9fbe c5fa bdbe 9492 5cbe

bn2.running_mean f4 [64]
-0.23945454 -0.33712867 -0.13611911 -2.4167771 -1.531146 1.4459369 -1.2167847 -2.4845552
-2.008884 -2.2450244 -0.038886018 1.1162786 -0.9411556 -1.2224522 -1.7909939 -0.58491236
-1.2973272 -1.2643689 0.4278104 0.5027474 -1.2091987 -1.9801129 -1.3964648 1.0908215
-2.6282208 0.945967 -2.0129013 0.2710824 -0.6576656 -1.6667409 -1.0244762 -1.8090804
1.3341857 -2.43978 2.9013307 -2.163926 -1.0038557 -2.465719 -0.7905336 -2.2225204
-1.9874924 -1.7997378 -1.9313956 0.64364314 1.591485 -1.2696831 -1.9059806 0.589314
-1.7725487 0.2357312 -1.4248741 0.7589987 -2.4384725 -0.17198673 -0.37220478 -2.639473
-0.18251783 -0.34941223 -1.6205128 0.15815848 1.406446 -0.3489388 -1.924065 -1.2231243
00000000: 9233 75be 219c acbe cf62 0bbe 7aac 1ac0
00000010: 98fc c3bf 7614 b93f 9abf 9bbf f402 1fc0
00000020: 8e91 00c0 7bae 0fc0 f246 1fbd 38e2 8e3f
00000030: 93ef 70bf 5079 9cbf 4a3f e5bf d1bc 15bf
00000040: d10e a6bf d7d6 a1bf f709 db3e 0eb4 003f
00000050: 06c7 9abf 5774 fdbf 5cbf b2bf 0aa0 8b3f
00000060: c534 28c0 e52a 723f 60d3 00c0 50cb 8a3e
00000070: c65c 28bf c457 d5bf 0922 83bf f28f e7bf
00000080: 99c6 aa3f 5b25 1cc0 67af 3940 c37d 0ac0
00000090: 587e 80bf 57ce 1dc0 6960 4abf c63d 0ec0
000000a0: 2766 febf cf5d e6bf f937 f7bf ccc5 243f
000000b0: c8b5 cb3f fa84 a2bf 2cf7 f3bf 48dd 163f
000000c0: e0e2 e2bf 8563 713e 4662 b6bf bd4d 423f
000000d0: ef0f 1cc0 4a1d 30be a091 bebe 20ed 28c0
000000e0: f4e5 3abe 29e6 b2be f76c cfbf 4cf4 213e
000000f0: 6c06 b43f 1ba8 b2be c347 f6bf 568f 9cbf

bn2.running_var f4 [64]
5.9502263 3.0230627 5.7064905 4.7720823 3.939379 6.7301273 5.1443324 13.031562
3.7084103 5.5264273 6.0639505 6.020285 7.908015 9.25444 6.7141304 2.8463252
5.5478244 3.1461265 2.2135108 3.6794045 4.535727 8.165552 3.9020762 7.051238
9.256003 8.739913 5.0601773 5.0261126 6.242799 12.666162 6.3879128 10.177932
4.675686 12.118164 7.5240517 12.07991 5.2907405 5.994822 4.3844943 3.972105
7.993696 4.9009304 4.467281 4.0422864 3.55539 4.6850357 5.176072 4.929465
3.8565228 2.601665 6.542921 7.0952535 5.941086 9.407537 2.056596 5.1578746
6.543581 4.503332 5.4243426 4.016786 4.4568033 4.0513873 10.893372 4.985852
00000000: 4168 be40 dc79 4140 929b b640 e6b4 9840
00000010: c91e 7c40 345d d740 5f9e a440 4781 5041
00000020: 9856 6d40 7ed8 b040 e20b c240 2da6 c040
00000030: 750e fd40 3012 1441 28da d640 312a 3640
00000040: c787 b140 235a 4940 29aa 0d40 5d7b 6b40
00000050: ad24 9140 1aa6 0241 9ebb 7940 bea3 e140
00000060: 9718 1441 afd6 0b41 f9ec a140 ead5 a040
00000070: 02c5 c740 99a8 4a41 c869 cc40 cfd8 2241
00000080: 389f 9540 00e4 4141 08c5 f040 5047 4141
00000090: bf4d a940 95d5 bf40 c74d 8c40 f836 7e40
000000a0: 5ccc ff40 6cd4 9c40 f7f3 8e40 695a 8140
000000b0: 828b 6340 d0eb 9540 62a2 a540 2dbe 9d40
000000c0: 45d1 7640 ae81 2640 9c5f d140 510c e340
000000d0: 601d be40 4685 1641 459f 0340 4f0d a540
000000e0: 0465 d140 4c1b 9040 3794 ad40 8389 8040
000000f0: 229e 8e40 f7a4 8140 404b 2e41 198c 9f40

layer3.weight f4 [32, 64]
-0.09027035 -0.0028842841 0.087011665 -0.14189541 -0.26381597 -0.008409397 -0.37538794 -0.2607782
0.15537253 -0.09473287 -0.0062029194 -0.005636777 -0.5523253 -0.51553094 0.11450277 -0.049446262
-0.33188555 -0.04537942 0.1017556 -0.043832656 0.035082787 0.056827247 0.17756782 -0.06670039
0.011487973 -0.0015229712 -0.008959071 -0.04428224 -0.015090492 -0.45432872 -0.14950365 -0.2441224
-0.43481788 -0.35198125 0.053768884 -0.24956086 0.071879506 0.04415016 -0.04903068 -0.2460494
-0.013019927 -0.42073205 -0.5097728 0.05971226 -0.46379024 -0.04165836 -0.011124485 0.063483365
0.0026469869 -0.4249281 -0.43215877 -0.09263654 -0.18139802 0.10441697 0.03665702 -0.23924874
0.041712437 -0.03196104 -0.46859393 0.094885506 -0.04384464 -0.23003909 -0.30708483 0.08365711
0.0076198955 -0.0932962 -0.014238917 -0.2494502 -0.11895562 0.026663914 0.065915056 0.12970541
-0.09962429 0.13628997 0.047853917 -0.07984619 -0.059769575 -0.108158484 -0.16755907 -0.29195157
-0.019841658 0.057866096 0.035710394 0.24848457 0.053715255 -1.2521137 -0.16658442 0.17637588
-1.2234869 -0.4252065 -0.13425347 0.09448118 -0.31948704 0.095987834 -1.4859239 0.17267601
-0.061897192 0.035087068 -0.37026203 0.22282217 -0.03220933 -0.4100667 -0.04836088 0.072234504
-0.42928922 0.21239163 0.14466713 0.004360452 -0.11749159 0.2669824 0.09385333 0.010047377
-0.19775063 -0.22066832 0.07083106 -0.12888815 -0.15223305 -0.24768147 0.45174816 -0.20512663
0.004445369 -0.01809957 -0.20710377 0.117044754 0.048347384 0.0547322 -0.09226683 -0.09658387
0.11072304 -0.6775586 0.19332176 -0.54924124 -0.009120641 0.001974176 -0.17783187 -0.3179001
-0.058403417 -0.49691427 0.01731023 -0.10732482 0.056919172 -0.19707675 -0.09488557 0.12437829
-0.41622785 -0.32068726 0.3082525 -0.1495618 0.18658297 -0.02418534 -0.010938627 0.029058011
0.04160475 -0.025173634 -0.003500409 -0.07654438 0.30855355 -0.04451273 -0.0884218 0.10512363
-0.21203147 0.06307447 0.22770791 -0.34550062 -0.9516068 -0.0010848122 0.05323824 -0.40515396
-0.14658713 0.21212713 -0.041316964 -0.5365435 -0.018900873 -0.7010794 -0.4252399 -0.43618494
-0.14632551 -0.88245654 0.07834737 -0.0961785 0.09279934 0.0054853046 -0.06706312 -0.038662497
0.004262465 -0.30245253 0.12959675 0.25417474 -0.72365326 -0.2606566 -0.41451347 -0.48276615
-0.08862481 0.091076806 0.05178602 -0.017452462 -0.13481414 0.032181375 -0.2828484 -0.14291069
0.20504536 -0.117905214 -0.016667385 -0.055310998 -0.2972335 -0.37127957 0.12720911 -0.10707074
-0.3035602 -0.17850682 -0.26105815 0.067470945 0.09772559 -0.06373759 -0.04963883 0.029679157
0.024143176 0.04768461 -0.01967094 -0.044310946 0.04713037 -0.2392932 0.11040642 0.08546877
-0.37096035 -0.19973107 0.0013744285 -0.18436234 0.013288806 0.09101056 0.06340006 -0.16178602
0.029411187 -0.25096598 -0.20565219 -0.024226157 -0.22535354 0.0745508 0.16331643 -0.07413305
0.014962167 -0.41649914 -0.355967 0.055471737 0.15377213 -0.15493153 -0.107709505 -0.084558055
0.061659146 -0.0020278317 -0.18258934 0.09141686 -0.057251375 -0.020656107 -0.45226383 -0.11443741
00000000: a9df b8bd 4206 3dbb 2c33 b23d 084d 11be
00000010: e312 87be 91c7 09bc d932 c0be b884 85be
00000020: fa19 1f3e 4f03 c2bd dc41 cbbb b6b4 b8bb
00000030: 3165 0dbf d6f9 03bf 6e80 ea3d 2a88 4abd
00000040: e7ec a9be c5df 39bd 3d65 d03d df89 33bd
00000050: f8b2 0f3d b0c3 683d 57d4 353e 379a 88bd
00000060: 0d38 3c3c 6f9e c7ba 11c9 12bc 4b61 35bd
00000070: 1c3e 77bc c69d e8be 7c17 19be 39fb 79be
00000080: 73a0 debe e336 b4be c33c 5c3d e28c 7fbe
00000090: 9035 933d ccd6 343d 65d4 48bd 60f4 7bbe
000000a0: 8851 55bc 316a d7be 7880 02bf d894 743d
000000b0: ea75 edbe f5a1 2abd 7943 36bc 9103 823d
000000c0: 1279 2d3b 2d90 d9be ea43 ddbe 3ab8 bdbd
000000d0: 67c0 39be 90d8 d53d ac25 163d 9ffd 74be
000000e0: a9da 2a3d 94e9 02bd 8beb efbe 5553 c23d
000000f0: 7096 33bd 5e8f 6bbe 393a 9dbe 6b54 ab3d
00000100: 51b0 f93b 1412 bfbd 594a 69bc e06f 7fbe
00000110: 019f f3bd 486e da3c 79fe 863d 7fd1 043e
00000120: d207 ccbd 998f 0b3e 7802 443d 6686 a3bd
00000130: f1d0 74bd 3282 ddbd 9b94 2bbe ad7a 95be
00000140: f98a a2bc 0005 6d3d 1045 123d bd72 7e3e
00000150: 8704 5c3d 4345 a0bf 1b95 2abe e19b 343e
00000160: 389b 9cbf abb4 d9be be79 09be 597f c13d
00000170: ce93 a3be 4595 c43d c132 bebf fbd1 303e
00000180: e987 7dbd 75b7 0f3d fc92 bdbe 7f2b 643e
00000190: eeed 03bd 43f4 d1be 0f16 46bd afef 933d
000001a0: cccb dbbe 317d 593e 9f23 143e 1fe2 8e3b
000001b0: 6e9f f0bd ebb1 883e 2d36 c03d c19d 243c
000001c0: 247f 4abe e0f6 61be e00f 913d 41fb 03be
000001d0: fbe2 1bbe 36a0 7dbe 894b e73e b70c 52be
000001e0: 75aa 913b 8d45 94bc 0313 54be 29b5 ef3d
000001f0: e807 463d df2e 603d 64f6 bcbd c4cd c5bd
00000200: c3c2 e23d 7b74 2dbf 24f6 453e 139b 0cbf
00000210: be6e 15bc 2d61 013b 8f19 36be cdc3 a2be
00000220: 6c38 6fbd 8c6b febe 2fce 8d3c 1dcd dbbd
00000230: 1424 693d 7dce 49be 5e53 c2bd 0bba fe3d
00000240: d11b d5be 1f31 a4be 46d3 9d3e ba26 19be
00000250: 9b0f 3f3e 5620 c6bc ed37 33bc 110b ee3c
00000260: be69 2a3d f038 cebc 1e67 65bb 4dc3 9cbd
00000270: bbfa 9d3e fb52 36bd 7d16 b5bd 0f4b d73d
00000280: c71e 59be 302d 813d 432c 693e 75e5 b0be
00000290: 819c 73bf 4230 8eba 5710 5a3d 5770 cfbe
000002a0: f01a 16be db37 593e fa3b 29bd ea5a 09bf
000002b0: 01d6 9abc f179 33bf 0bb9 d9be a253 dfbe
000002c0: 5bd6 15be ace8 61bf 9674 a03d 3cf9 c4bd
000002d0: 950d be3d 12be b33b 6458 89bd 915c 1ebd
000002e0: 26ac 8b3b 0fdb 9abe 03b5 043e 3123 823e
000002f0: 5741 39bf c874 85be 1c3b d4be 202d f7be
00000300: ed80 b5bd 7a86 ba3d 941d 543d 77f8 8ebc
00000310: b80c 0abe 9ed0 033d 81d1 90be 2e57 12be
00000320: 69f7 513e 4a78 f1bd 0a8a 88bc c98d 62bd
00000330: fd2e 98be 5b18 bebe 1b43 023e e747 dbbd
00000340: 3e6c 9bbe 7eca 36be 6aa9 85be 352e 8a3d
00000350: 5b24 c83d db88 82bd 1652 4bbd b421 f33c
00000360: e9c7 c53c f050 433d f324 a1bc 657f 35bd
00000370: c60b 413d 4709 75be c31c e23d 400a af3d
00000380: 84ee bdbe 4d86 4cbe 2b26 b43a 7bc9 3cbe
00000390: 4bb9 593c bf63 ba3d e4d7 813d 3cab 25be
000003a0: bbef f03c 9d7e 80be 7d96 52be ef75 c6bc
000003b0: 14c3 66be 17ae 983d 6c3c 273e 12d3 97bd
000003c0: e023 753c 603f d5be 4e41 b6be 5536 633d
000003d0: 7176 1d3e 5fa6 1ebe cd96 dcbd c62c adbd
000003e0: 4d8e 7c3d 5fe5 04bb b3f8 3abe c338 bb3d
000003f0: 6b80 6abd ff36 a9bc 208f e7be 295e eabd

layer3.bias f4 [32]
-0.04190789 -0.1042042 -0.083933674 -0.006505408 -0.088505484 -0.08603855 0.019908939 -0.07091724
-0.10186119 -0.08768872 0.048033495 0.016971594 -0.11817281 -0.1008224 0.05043049 0.11626428
0.04532975 0.062695555 -0.0037363633 0.05337967 0.06374259 -0.065902956 0.06387877 -0.03444274
0.044737216 -0.11772841 -0.06729206 -0.07338514 -0.05053868 0.11812609 -0.0632864 0.033906788
00000000: 9ca7 2bbd 0369 d5bd 6be5 abbd 512b d5bb
00000010: 5d42 b5bd fb34 b0bd 1218 a33c 0f3d 91bd
00000020: 999c d0bd 2596 b3bd c5be 443d 0308 8b3c
00000030: 9604 f2bd f97b cebd 3490 4e3d f81b ee3d
00000040: b0ab 393d 8766 803d c6dd 74bb a4a4 5a3d
00000050: 7a8b 823d 21f8 86bd dfd2 823d d513 0dbd
00000060: 5f3e 373d 981b f1bd 6bd0 89bd f34a 96bd
00000070: a601 4fbd 17ec f13d 4d9c 81bd d8e1 0a3d

bn3.weight f4 [32]
0.2726295 0.38923645 0.40283474 0.313051 0.21636268 0.35782808 0.31661868 0.24117257
0.47727916 0.3226729 0.3112623 0.23674 0.33305898 0.27173078 0.444167 0.3161637
0.2819398 0.36956272 0.63059956 0.17151454 0.42194012 0.47588527 0.51026547 0.54274225
0.34548783 0.3535008 0.26499015 0.40806255 0.34598902 0.46891436 0.5131958 0.3491999
00000000: 1896 8b3e 004a c73e 5b40 ce3e 3848 a03e
00000010: 2e8e 5d3e 3e35 b73e d81b a23e f1f5 763e
00000020: ef5d f43e 6235 a53e c65d 9f3e f86b 723e
00000030: b586 aa3e 4c20 8b3e db69 e33e 35e0 a13e
00000040: 6a5a 903e 5337 bd3e f96e 213f 82a1 2f3e
00000050: 8908 d83e 3ca7 f33e c2a0 023f 28f1 0a3f
00000060: c8e3 b03e 0ffe b43e caac 873e 93ed d03e
00000070: 7925 b13e 8b15 f03e cd60 033f 54ca b23e

bn3.bias f4 [32]
-0.7191381 -0.48672694 -0.21088734 -0.6063857 -0.48039737 -0.5881815 -0.522359 -0.5017984
-0.348268 -0.5794476 -0.6757098 -0.6643735 -0.60312855 -0.68692917 -0.48316717 -0.6051553
-0.59224445 -0.09859242 -0.15469505 -0.3936045 -0.33126268 -0.4114965 -0.3110667 0.13471203
-0.62887967 -0.6321986 -0.74823684 -0.48616284 -0.56201863 -0.35385954 -0.3735005 -0.041784614
00000000: 6f19 38bf 4634 f9be daf2 57be 183c 1bbf
00000010: a5f6 f5be 1093 16bf 52b9 05bf dc75 00bf
00000020: 2f50 b2be ae56 14bf 51fb 2cbf 6214 2abf
00000030: a266 1abf 97da 2fbf b061 f7be 75eb 1abf
00000040: 559d 17bf d3ea c9bd 6168 1ebe 8786 c9be
00000050: 439b a9be abaf d2be 2244 9fbe f3f1 093e
00000060: 42fe 20bf c4d7 21bf 738c 3fbf 56ea f8be
00000070: 74e0 0fbf 142d b5be 753b bfbe 5826 2bbd

bn3.running_mean f4 [32]
-1.7014443 -3.027859 -1.9197725 -0.7794139 -1.6584432 -1.8884374 -1.3425286 -1.315323
-2.9268374 -1.7620544 -1.9788626 -0.8785861 -1.4930671 -1.4870597 -2.4209185 -1.3995727
-1.3528991 -1.2328999 -2.0337539 -1.6983325 -0.5138582 -0.900269 -1.8199736 -0.504265
-1.3767958 -1.1364316 -1.1050118 -2.096972 -1.9428917 -1.124883 -2.8425753 -0.60279864
00000000: edc8 d9bf 71c8 41c0 1bbb f5bf ab87 47bf
00000010: de47 d4bf 51b8 f1bf fad7 abbf 815c a8bf
00000020: 4e51 3bc0 008b e1bf 5f4b fdbf 05eb 60bf
00000030: d31c bfbf f957 bebf 54f0 1ac0 3325 b3bf
00000040: cc2b adbf aacf 9dbf 0629 02c0 f662 d9bf
00000050: 368c 03bf 0778 66bf e5f4 e8bf 8317 01bf
00000060: d83a b0bf 9776 91bf 0771 8dbf ca34 06c0
00000070: adb0 f8bf 2bfc 8fbf c1ec 35c0 0351 1abf

bn3.running_var f4 [32]
4.6855464 8.701585 4.9574184 2.4550097 2.9816766 4.8621464 3.2053406 2.972112
9.664409 5.0593324 3.4726303 1.6702604 4.1929836 2.6302826 20.773949 1.597261
4.256705 8.41399 17.96688 2.659396 10.874883 7.693266 9.563949 10.714554
3.1917763 2.3143454 2.187156 4.327951 7.3510375 6.4384127 16.552092 6.454494
00000000: ffef 9540 b139 0b41 2ca3 9e40 e11e 1d40
00000010: cad3 3e40 b496 9b40 4d24 4d40 1537 3e40
00000020: 6ba1 1a41 0de6 a140 933f 5e40 18cb d53f
00000030: ec2c 8640 8d56 2840 0c31 a641 0c73 cc3f
00000040: ed36 8840 b49f 0641 2cbc 8f41 8b33 2a40
00000050: 85ff 2d41 3c2f f640 ef05 1941 d06e 2b41
00000060: 1046 4c40 3c1e 1440 5dfa 0b40 937e 8a40
00000070: b33b eb40 7a07 ce40 af6a 8441 378b ce40

layer4.weight f4 [1, 32]
0.019594943 0.02948945 -0.027937315 0.023618912 0.000105188636 -0.0106345555 -0.028575536 -0.03224919
0.06894008 -0.030478027 0.004655269 -0.024376355 -0.0068106195 0.0020194203 -0.052022927 -0.0053048083
0.008754547 0.0495571 0.0668333 0.013264761 0.073667504 0.025984988 -0.02749477 -0.08321164
0.003422809 -0.017228115 -0.0053591887 -0.03966518 -0.010486467 0.034161855 -0.048854552 -0.045106
00000000: 9385 a03c dc93 f13c ccdc e4bc 737c c13c
00000010: b898 dc38 8f3c 2ebc 3e17 eabc ba17 04bd
00000020: 7530 8d3d 0ead f9bc 3a8b 983b ecb0 c7bc
00000030: 9e2b dfbb 4058 043b fe15 55bd f5d3 adbb
00000040: 3b6f 0f3c 63fc 4a3d e6df 883d 7154 593c
00000050: fdde 963d 78de d43c b63c e1bc dd6a aabd
00000060: 3551 603b fa21 8dbc 229c afbb f577 22bd
00000070: 6ecf 2bbc 4ded 0b3d b61b 48bd 12c1 38bd
