code/thomas/model_artifacts/food_security_model.pth (torch, 85754 bytes, 19 tensors)

layer1.weight f4 [128, 63]
0	0x3e18aa93	0.14908819
1	0x3e6f5fc0	0.2337637
2	0xbe3f6fee	-0.18695042
3	0x3e7128ab	0.2355067
4	0xbe275567	-0.16341172
5	0x3da74f2d	0.081693985
6	0x3db549b9	0.08851952
7	0x3e8d40a5	0.27588382
8	0x3f0dbc99	0.553659
9	0xbe6992e6	-0.22809944
10	0xbf069c2d	-0.52582055
11	0xbe8f157a	-0.27946073
12	0xbeba93a0	-0.36440754
13	0xbb9385e2	-0.004502044
14	0x3ea0b595	0.31388536
15	0x3d2d29ea	0.0422763
16	0xbed749e1	-0.42048553
17	0xbef151ee	-0.4713282
18	0xbf33464e	-0.7002915
19	0xbeb767d0	-0.3582139
20	0xbe70133e	-0.2344484
21	0xbdf71693	-0.120648526
22	0x3c759efc	0.014991518
23	0xbe383d30	-0.17992091
24	0xbf007d73	-0.5019142
25	0xbdc800b9	-0.09765763
26	0xbda117af	-0.078658454
27	0xbf27d5bb	-0.655605
28	0xbf05f9c5	-0.52334243
29	0xbe071edd	-0.13195367
30	0x3e6d7983	0.23190884
31	0xbe9ac868	-0.30231023
32	0x3db628c2	0.08894493
33	0xbed8e056	-0.42358655
34	0xbe6eafa1	-0.23309185
35	0xbea0b9f0	-0.3139186
36	0xbf160c30	-0.58612347
37	0x3d89ad9b	0.06722566
38	0x3e29e275	0.16590293
39	0xbf8c213f	-1.0947646
40	0xbd8f7ae3	-0.07005861
41	0x3e60d122	0.21954778
42	0xbf402ee6	-0.7507156
43	0xbe8a58c5	-0.2702085
44	0xbe8d4c75	-0.27597395
45	0xbc866a33	-0.016408062
46	0xbef68420	-0.48147678
47	0xbc94e84e	-0.018177178
48	0x3e7434e3	0.238483
49	0x3e5827e5	0.21108969
50	0xbd905bbb	-0.07048746
51	0xbedf4818	-0.4360969
52	0xbf6374a1	-0.88849837
53	0xbe7ecac0	-0.2488203
54	0xbe1311c0	-0.1436224
55	0xbedb5817	-0.42840645
56	0xbe028313	-0.12745313
57	0xbdd437af	-0.10362183
58	0xbe063286	-0.1310521
59	0xbdae20d7	-0.085023575
60	0xbe26aef3	-0.16277675
61	0xbe5a93e2	-0.21345475
62	0xbda10b38	-0.07863468
63	0xbd8b0fc3	-0.06790116
64	0xbe0efa54	-0.1396268
65	0xbe9e6dd2	-0.3094316
66	0x3e8790c6	0.2647764
67	0xbe3751fc	-0.17902368
68	0x3e0f4473	0.13990955
69	0x3cb8d49a	0.022562314
70	0x3da360f2	0.07977475
71	0xbe2aa381	-0.16663934
72	0x3e46da33	0.19419174
73	0xbee3a793	-0.44463786
74	0xbd798514	-0.06091793
75	0xbe19b697	-0.15011059
76	0x3d9850d2	0.0743729
77	0x3e7df45d	0.24800248
78	0xbe03bf90	-0.12866044
79	0x3d9b4da0	0.07583165
80	0xbed1e526	-0.4099514
81	0xbe207756	-0.15670523
82	0xbecb1e97	-0.39671776
83	0xbd9bd254	-0.07608476
84	0xbf0f9c63	-0.56098
85	0xbbcdd980	-0.0062820315
86	0xbf019062	-0.50610936
87	0xbeb27ec4	-0.3486234
88	0xbe8b5a16	-0.27217168
89	0xbeeb9e09	-0.4601901
90	0x3c03dcd3	0.008048254
91	0xbeb6f93f	-0.35737035
92	0x3b1a0540	0.0023501664
93	0x3d384264	0.04498519
94	0xbf0255fb	-0.50912446
95	0x3e129107	0.14313136
96	0xbe980cd1	-0.29697278
97	0xbef5e5ea	-0.48026973
98	0xbec9ca21	-0.39412025
99	0xbeab93fc	-0.3351134
100	0xbe719ecb	-0.23595731
101	0xbe9d6bcb	-0.30746302
102	0xbf0d56e6	-0.5521072
103	0xbdcc57eb	-0.099777065
104	0xbf0074f0	-0.5017843
105	0xbe712e98	-0.2355293
106	0xbe540cf6	-0.20708069
107	0xbea5b16d	-0.32361928
108	0xbd87d014	-0.06631485
109	0xbee71f5c	-0.45141113
110	0xbe452a2c	-0.19254369
111	0xbe3e6174	-0.18591863
112	0xbe10d840	-0.14144993
113	0x3d8a7976	0.06761448
114	0xbee6bb08	-0.4506457
115	0xbefcb62d	-0.4935774
116	0xbeaf3e04	-0.34227002
117	0xbe2ba361	-0.16761543
118	0xbee24dc9	-0.4419997
119	0xbe1d6f45	-0.15374477
120	0xbdb700c1	-0.08935691
121	0xbe0ccc2d	-0.13749762
122	0xbe375f2c	-0.17907399
123	0xbe55e263	-0.20887141
124	0xbe316f91	-0.17327715
125	0xbe7a29b0	-0.24429965
126	0xbd6a1de0	-0.057157397
127	0xbe7e5dec	-0.24840516
128	0x3de8aaf5	0.113607325
129	0xbe2db925	-0.16965158
130	0x3df87af7	0.12132829
131	0xbd79945c	-0.060932502
132	0x3ee7fdbc	0.4531077
133	0x3f0433e8	0.516417
134	0x3eaf5127	0.34241602
135	0xbeb19bea	-0.34689265
136	0xbecbc03d	-0.39795104
137	0x3d3275e0	0.043569446
138	0x3e3aa806	0.18228158
139	0x3e5391ff	0.20661162
140	0xbd3738c4	-0.04473187
141	0x3e09f7f0	0.13473487
142	0x3cf944f5	0.03042839
143	0xbdc3c239	-0.095585294
144	0xbefd696b	-0.4949449
145	0x3d466f53	0.04844601
146	0x3e15d911	0.14633586
147	0xbe1e77bf	-0.15475367
148	0x3e02b4c2	0.12764266
149	0x3e9691df	0.29408166
150	0x3e6e085f	0.23245381
151	0x3ea6050f	0.32425734
152	0xbe621b23	-0.22080664
153	0x3e9f3e34	0.31102145
154	0x3eae1da5	0.34006992
155	0xbed80a99	-0.42195585
156	0x3f29cb99	0.6632629
157	0xbe9c31a3	-0.3050662
158	0x3e8f6a05	0.28010574
159	0x3e2ae5f0	0.16689277
160	0xbd6905e6	-0.05689039
161	0x3e9f7c1b	0.31149372
162	0xbc9e51a9	-0.019326048
163	0xbf04766d	-0.51743203
164	0x3da65ae2	0.08122803
165	0x3d96ac86	0.07357125
166	0xbb5b99ec	-0.0033508493
167	0xbe63608b	-0.22204797
168	0xbd99f514	-0.07517448
169	0xbde6d53b	-0.11271139
170	0xbe275ddd	-0.163444
171	0x3eb4aeac	0.35289514
172	0xbc53ac0d	-0.012919438
173	0x3eb08b07	0.3448107
174	0xbefec262	-0.49757677
175	0xbe91b540	-0.28458595
176	0x3e238cef	0.1597173
177	0x3dfeb38c	0.124365896
178	0x3e4874eb	0.1957585
179	0xbd1e1848	-0.038597375
180	0xbd0362f0	-0.032076776
181	0xbcde5292	-0.027138982
182	0xbc84dc95	-0.016218463
183	0x3d4ef911	0.050530497
184	0x3d8d1803	0.068893455
185	0x3d9ed286	0.07754998
186	0x3d81c673	0.06336679
187	0x3daa8807	0.083267264
188	0xbf0bd2b0	-0.5461836
189	0xbdeb8f5c	-0.11501953
190	0x3d896eff	0.06710624
191	0x3dcf59cf	0.101245515
192	0x3dcc83e7	0.09986096
193	0x3c64eb78	0.013972156
194	0xbd1ac141	-0.037781958
195	0xbc7b941d	-0.015355137
196	0x3d24db32	0.040248103
197	0xbe4b7fe6	-0.19873008
198	0x3d76e3ad	0.060275722
199	0xbed053fa	-0.4068907
200	0x3f32a261	0.6977902
201	0x3e0fa9fe	0.1402969
202	0x3eb85028	0.35998654
203	0xbeab3b33	-0.33443603
204	0xbe312568	-0.17299426
205	0x3ef45eb5	0.47728506
206	0x3eb97a9b	0.36226353
207	0x3e05e7c2	0.1307669
208	0x3f05b43d	0.52228147
209	0xbd2d6096	-0.04232844
210	0x3ef59a0c	0.4796909
211	0xbe6cfa1d	-0.23142286
212	0xbeb0634a	-0.34450752
213	0x3ebb5060	0.3658476
214	0x3e94251e	0.28934568
215	0xbe388723	-0.180203
216	0xbe222fac	-0.15838498
217	0x3ec5062b	0.38481268
218	0xbec9ed52	-0.39438874
219	0x3d980e19	0.07424564
220	0x3edbebe9	0.42953423
221	0xbd94147f	-0.07230472
222	0xbf4e2da2	-0.8053838
223	0x3ece8aa0	0.40340137
224	0x3ee39902	0.44452673
225	0x3ec68458	0.38772845
226	0xbe340a71	-0.17582108
227	0x3e01b79d	0.12667699
228	0x3f0cea4e	0.5504502
229	0xbe21f475	-0.15815909
230	0xbe3cbbd0	-0.1843102
231	0xbbaa1795	-0.0051907995
232	0x3eed5dc5	0.46360603
233	0x3e5db54e	0.21651193
234	0xbe3bcadc	-0.18339103
235	0x3ef790a0	0.48352528
236	0xbee2c1a1	-0.44288352
237	0xbe98c2b3	-0.29836044
238	0xbe6314e6	-0.22175941
239	0xbf00049c	-0.50007033
240	0x3f1902b8	0.59769773
241	0x3d40542f	0.046955284
242	0x3eee5538	0.46549392
243	0xbed34d99	-0.4127014
244	0x3f157ee4	0.58396745
245	0xbca312aa	-0.01990636
246	0x3d14f09d	0.03636228
247	0xbd323863	-0.043510806
248	0xbdc310f1	-0.09524716
249	0xbd89a706	-0.0672131
250	0xbd21b794	-0.039481714
251	0x3d140516	0.036137663
252	0xbceebe7b	-0.029143563
253	0xbec6dfd7	-0.3884265
254	0x3c59f532	0.013303088
255	0xbe565100	-0.20929337

layer1.bias f4 [128]
0	0x3d8f70d6	0.070039436
1	0x3d3a7517	0.04552182
2	0xbdcffa01	-0.10155106
3	0x3d9ff130	0.07809675
4	0x3df8527f	0.1212511
5	0xbda10d12	-0.07863821
6	0xbdf3e999	-0.119097896
7	0xbdfa9df4	-0.122371584
8	0xbda293f1	-0.07938374
9	0xbd59b1ee	-0.053148203
10	0xbd952a05	-0.07283405
11	0xbde075c6	-0.109599635
12	0x3da3649e	0.079781756
13	0x3e017e32	0.12645796
14	0x3ddee613	0.10883727
15	0x3da03e63	0.07824399
16	0x3d6429fc	0.055704102
17	0xbd39a8ba	-0.045326926
18	0xbdd5f516	-0.10447137
19	0xbd9616ba	-0.073285535
20	0x3d65a6f8	0.056067437
21	0x3cf0d398	0.02939777
22	0x3c8c5955	0.01713244
23	0xbda032ab	-0.07822164
24	0xbd689520	-0.05678284
25	0xbd5bf27d	-0.05369805
26	0xbc88706a	-0.016655166
27	0xbcb85df8	-0.022505745
28	0x3c32536c	0.010884147
29	0xbd214295	-0.03937014
30	0xbc3c20dc	-0.011482444
31	0xbda63d8b	-0.08117207
32	0x3d809020	0.0627749
33	0xbdd8f0e3	-0.105928205
34	0x3ca693c0	0.020334125
35	0xbdfe0aa2	-0.12404372
36	0xbd8f5631	-0.069988616
37	0x3df83ec4	0.121213466
38	0xbcc66360	-0.024217308
39	0xbcc16ef9	-0.023612486
40	0x3d8bc0c1	0.06823874
41	0xbdd34dc2	-0.103175655
42	0xbcdea639	-0.02717887
43	0xbb7fbf43	-0.0039023913
44	0x3c4a70ad	0.012355966
45	0xbccdc3e5	-0.025117824
46	0xbdb43ae8	-0.08800298
47	0xbdeb2aa0	-0.114827394
48	0xb973bef1	-0.00023245417
49	0x3ddbb6d2	0.107282296
50	0xbd6ed76c	-0.05831091
51	0x3c803e1c	0.015654616
52	0x3da519e5	0.080615796
53	0xbdf8bd0d	-0.121454336
54	0x3ddea331	0.1087097
55	0x3dd8de46	0.1058927
56	0xbd61c404	-0.055118576
57	0x3dda8e55	0.10671679
58	0x3db15294	0.08658329
59	0x3dd47d0d	0.10375414
60	0x3dd5978f	0.10429298
61	0x3d07a8d0	0.033119977
62	0x3d8c8f1a	0.06863232
63	0xbd857aa5	-0.06517533
64	0x3ca48c41	0.02008641
65	0x3df9fb76	0.122061655
66	0xbd333693	-0.043753218
67	0x3cecd387	0.028909458
68	0xbd883933	-0.06651535
69	0x3d4838c0	0.048882246
70	0x3d236a80	0.03989649
71	0x3dc3d8e1	0.09562851
72	0x3a2d70a7	0.0006616213
73	0x3d7072c2	0.05870319
74	0x3d9666db	0.07343837
75	0x3c8802ad	0.016602838
76	0xbdefe7d6	-0.11714141
77	0x3dbb854c	0.09156284
78	0xbdabc309	-0.083868094
79	0x3d6c3470	0.057667196
80	0xbdc3c5e6	-0.095592305
81	0x3d1441f6	0.036195718
82	0xbcd7351d	-0.026270444
83	0xbde66f94	-0.112517506
84	0x3d6c8dd5	0.05775245
85	0xbd017790	-0.031608164
86	0xbd53ca92	-0.051706858
87	0xbd1b6bfc	-0.03794478
88	0x3db11ccf	0.08648073
89	0x3d9b3faf	0.07580506
90	0x3ce93729	0.028468685
91	0x3d580d6b	0.05274717
92	0x3d88df04	0.06683162
93	0x3d56c970	0.0524382
94	0x3dde2434	0.10846749
95	0x3d9a206f	0.075257175
96	0xbd82d614	-0.063884884
97	0xbcaa090f	-0.020756273
98	0x3d6d21bf	0.05789351
99	0x3dca79f4	0.09886542
100	0xbdd7749a	-0.10520287
101	0xbd7edded	-0.062223364
102	0xbd7b164e	-0.06130057
103	0x3df3e40f	0.11908733
104	0x3dfc7e6e	0.12328802
105	0xbd5c3602	-0.053762443
106	0xbd1b87e9	-0.03797141
107	0x3a0059f8	0.0004896219
108	0x3be0c6dc	0.0068596434
109	0xbd17ce4e	-0.03706198
110	0xbdb6eb48	-0.08931595
111	0xbd898260	-0.0671432
112	0xbc462f2d	-0.0120962085
113	0x3c570626	0.0131240245
114	0x3b1bf88a	0.0023799264
115	0xbdebf8ac	-0.1152204
116	0x3de5b135	0.1121544
117	0xbd9646a1	-0.0733769
118	0xbcf97b15	-0.030454198
119	0x3de888f8	0.1135425
120	0xbb0ad3e3	-0.0021183423
121	0xbdcb9cd1	-0.0994202
122	0x3d909f67	0.070616536
123	0xbd43ff68	-0.047850996
124	0x3df98ca5	0.12185029
125	0xbd15d29e	-0.036577813
126	0xbdbc9371	-0.0920781
127	0xbdbf4425	-0.093391694

bn1.weight f4 [128]
0	0x3f40efb0	0.75365734
1	0x3f69e578	0.91365767
2	0x3f7317db	0.94958276
3	0x3f8a0197	1.0781735
4	0x3f67f266	0.90604246
5	0x3f2ab71b	0.66685647
6	0x3f81fb0b	1.0154737
7	0x3f4a668a	0.7906271
8	0x3f64bad5	0.89347583
9	0x3fa9a40f	1.3253192
10	0x3f7694d1	0.96320826
11	0x3f67742c	0.9041164
12	0x3f74f3af	0.9568433
13	0x3f98f7f8	1.1950674
14	0x3f37d750	0.71812916
15	0x3f5dd515	0.8665326
16	0x3f561ee7	0.83640903
17	0x3f80e87e	1.0070951
18	0x3f77a2fb	0.96733063
19	0x3f77fe89	0.96872765
20	0x3f539320	0.8264637
21	0x3f5b60b6	0.85694444
22	0x3f80599c	1.0027347
23	0x3f55ac18	0.8346572
24	0x3f622198	0.8833251
25	0x3f753e4e	0.95798194
26	0x3f81ac9a	1.0130799
27	0x3f636485	0.88825256
28	0x3f4feaba	0.8121754
29	0x3f45ba8e	0.77237785
30	0x3f931a1b	1.1492342
31	0x3f6ea6c2	0.932232
32	0x3f69fdcd	0.91402894
33	0x3f74a7a1	0.9556828
34	0x3f88473f	1.0646743
35	0x3f75fc90	0.96088505
36	0x3f78b74f	0.97154707
37	0x3f76d12a	0.9641291
38	0x3f5b83e8	0.8574815
39	0x3f7deed2	0.99192536
40	0x3f5fc306	0.8740696
41	0x3f837dac	1.0272727
42	0x3f5ce09d	0.8628023
43	0x3f59d333	0.8508789
44	0x3f38a197	0.72121567
45	0x3f6c3192	0.9226314
46	0x3f7fcc9b	0.9992158
47	0x3f7757ca	0.9661833
48	0x3f8ad3fb	1.0845941
49	0x3f520bc1	0.82049185
50	0x3f62cdc1	0.88595206
51	0x3f77416d	0.96584207
52	0x3f69a8a9	0.9127298
53	0x3f5e8eae	0.8693646
54	0x3f58929d	0.84598714
55	0x3f613498	0.87970877
56	0x3f6d4b2a	0.92692816
57	0x3f4bd30b	0.796189
58	0x3f91217b	1.1338342
59	0x3f814137	1.0098027
60	0x3f5f65a0	0.8726444
61	0x3f7c5cb3	0.9857895
62	0x3f4f55be	0.8099021
63	0x3f67ee7c	0.90598273
64	0x3f7fff65	0.99999076
65	0x3f89000d	1.070314
66	0x3f48e958	0.78481054
67	0x3f7ec8fe	0.9952544
68	0x3f74617e	0.9546126
69	0x3f72a34a	0.9478041
70	0x3f3c294c	0.73500514
71	0x3f9e2b4a	1.2356961
72	0x3f58417d	0.8447493
73	0x3f6b7dad	0.9198864
74	0x3f5c0b0f	0.85954374
75	0x3f6531dc	0.89529204
76	0x3f769404	0.96319604
77	0x3f329193	0.6975338
78	0x3f6a0b29	0.9142328
79	0x3f728bf3	0.94744796
80	0x3f5602c9	0.83598
81	0x3f6fef02	0.9372407
82	0x3f474ef0	0.77854824
83	0x3f597c75	0.8495553
84	0x3f703d04	0.938431
85	0x3f8b4ddb	1.0883135
86	0x3f88456e	1.0646188
87	0x3f6d4c9f	0.9269504
88	0x3f3d1e2d	0.7387417
89	0x3f58cae5	0.8468459
90	0x3f7197e1	0.94372374
91	0x3f89e56d	1.077314
92	0x3f35f803	0.7108156
93	0x3f88ddc5	1.0692679
94	0x3f79760d	0.97445756
95	0x3f7e6cf0	0.99384975
96	0x3f3c15cc	0.7347076
97	0x3f5531d6	0.8327917
98	0x3f87fe6a	1.0624516
99	0x3f6b882b	0.9200465
100	0x3f8e6f30	1.1127682
101	0x3f509c89	0.81488854
102	0x3f5c1610	0.85971165
103	0x3f7659af	0.96230596
104	0x3f6b8b4e	0.9200944
105	0x3f68be22	0.9091512
106	0x3f697f14	0.9120953
107	0x3f1151fc	0.56765723
108	0x3f6c4eba	0.9230763
109	0x3f89eb6e	1.0774972
110	0x3f5b27df	0.85607713
111	0x3f6514d5	0.8948491
112	0x3f57d179	0.84304005
113	0x3f6c6c3f	0.9235267
114	0x3f95c9ed	1.1702248
115	0x3f1fdf3d	0.6245001
116	0x3f8bc659	1.0919906
117	0x3f476be9	0.7789903
118	0x3f611399	0.8792053
119	0x3f43c770	0.7647619
120	0x3f4eadaf	0.8073377
121	0x3f89af62	1.0756648
122	0x3f819f4e	1.0126741
123	0x3f67c3a6	0.9053291
124	0x3f72f2ba	0.9490162
125	0x3f541656	0.8284658
126	0x3f4fe983	0.81215686
127	0x3f94391f	1.1579932

bn1.bias f4 [128]
0	0xbe692ff6	-0.22772202
1	0xbf4a9a1e	-0.79141414
2	0xbe849f61	-0.25902846
3	0xbf14a4f0	-0.58064175
4	0xbf2a14c1	-0.6643792
5	0xbe8f9e52	-0.28050476
6	0xbe853f04	-0.2602464
7	0xbeac4ad3	-0.33650836
8	0xbf06962a	-0.5257288
9	0xbe88b9ba	-0.26704198
10	0xbedcf3f8	-0.43154883
11	0xbf09a192	-0.5376216
12	0xbf3d1f2d	-0.73875695
13	0xbef01db8	-0.46897674
14	0xbef2f754	-0.4745432
15	0xbee125f5	-0.4397427
16	0xbe8a7588	-0.27042794
17	0xbe85fc5b	-0.26169094
18	0xbf088898	-0.53333426
19	0xbe978ed2	-0.2960115
20	0xbe93e4e4	-0.28885567
21	0xbf6401e7	-0.890654
22	0xbf462c2a	-0.7741114
23	0xbf3c289c	-0.73499465
24	0xbf2a9dc6	-0.66646993
25	0xbf2413c8	-0.64092684
26	0xbf2495ae	-0.64290893
27	0xbeef194d	-0.4669899
28	0xbedf818a	-0.43653518
29	0xbe8b6f0a	-0.27233154
30	0xbe774b90	-0.24149919
31	0xbf249e98	-0.64304495
32	0xbefcc85b	-0.4937161
33	0xbf256116	-0.64601266
34	0xbf125dec	-0.57174563
35	0xbf254a09	-0.64566094
36	0xbefe2cb8	-0.49643493
37	0xbf4e3214	-0.80545163
38	0xbf344649	-0.70419747
39	0xbf6863fd	-0.9077757
40	0xbe39f2f5	-0.18159087
41	0xbe9f87c5	-0.3115827
42	0xbe7389e5	-0.23783071
43	0xbf2f04fc	-0.6836698
44	0xbeb3261d	-0.34990016
45	0xbf3dbef0	-0.7411947
46	0xbf3b8345	-0.73247176
47	0xbefe9c14	-0.49728453
48	0xbefd38a5	-0.4945728
49	0xbf0bebe0	-0.5465679
50	0xbee4afce	-0.44665378
51	0xbed92621	-0.42411903
52	0xbeaee964	-0.34162438
53	0xbf29e9b6	-0.6637224
54	0xbf030661	-0.5118161
55	0xbe913560	-0.28361034
56	0xbf1b51e7	-0.6067185
57	0xbec52d8f	-0.3851132
58	0xbecc754b	-0.39933237
59	0xbf595065	-0.848883
60	0xbef3c3c3	-0.47610292
61	0xbe0b5357	-0.1360601
62	0xbf65d91f	-0.89784425
63	0xbec5f8fe	-0.38666528
64	0xbe7d3876	-0.2472857
65	0xbec3ef8d	-0.382687
66	0xbea929da	-0.33039743
67	0xbee89260	-0.45424175
68	0xbf4af0df	-0.7927379
69	0xbf11a6ce	-0.5689515
70	0xbeb013f7	-0.34390232
71	0xbe80411d	-0.25049677
72	0xbf6e031a	-0.9297348
73	0xbef178a9	-0.4716237
74	0xbeb5ba70	-0.35493803
75	0xbed94a0f	-0.42439315
76	0xbf17ce8c	-0.5929954
77	0xbe93fe01	-0.28904727
78	0xbe079607	-0.13240825
79	0xbed76dd1	-0.4207597
80	0xbeb5278c	-0.35381734
81	0xbf3863f4	-0.72027516
82	0x3d3f4562	0.046697028
83	0xbcb14554	-0.021639504
84	0xbf32f94a	-0.69911635
85	0xbe51187a	-0.20419493
86	0xbf51b400	-0.81915283
87	0xbe6b1056	-0.2295545
88	0xbeae8408	-0.34085107
89	0xbf0ad5be	-0.54232395
90	0xbf70959a	-0.93978274
91	0x3e186386	0.14881715
92	0x3d63ed51	0.055646244
93	0xbe5b7b92	-0.21433857
94	0xbf044f68	-0.51683664
95	0xbf0ce404	-0.55035424
96	0xbe983d44	-0.29734242
97	0xbf34b640	-0.7059059
98	0xbf41b4b0	-0.7566633
99	0xbee02354	-0.43776953
100	0xbf5cf082	-0.86304486
101	0xbef2493b	-0.47321495
102	0xbd91569f	-0.070966
103	0xbf01fe23	-0.50778407
104	0xbe98133d	-0.29702178
105	0xbebac097	-0.3647506
106	0xbe9b54f8	-0.30338264
107	0xbe7127d8	-0.23550355
108	0xbe71767d	-0.23580356
109	0xbe9749a0	-0.2954836
110	0xbeaab3fc	-0.33340442
111	0xbf325039	-0.6965366
112	0xbd80a4ff	-0.062814705
113	0xbee5d755	-0.44890848
114	0xbe83f85a	-0.25775415
115	0xbde8d1ea	-0.11368163
116	0xbf33cc44	-0.7023356
117	0xbf61b249	-0.88162667
118	0xbe924337	-0.28566906
119	0xbf344c29	-0.7042871
120	0xbecc7eaa	-0.39940387
121	0xbe421cbf	-0.18956278
122	0xbf216e38	-0.63058805
123	0xbecec62a	-0.40385562
124	0xbee18b6e	-0.4405169
125	0xbf037114	-0.5134442
126	0xbec0b56c	-0.37638414
127	0xbe850619	-0.25981215

bn1.running_mean f4 [128]
0	0xbe5008cd	-0.20315857
1	0xbe9d1b16	-0.30684727
2	0xbdf29389	-0.11844546
3	0x3d37f32e	0.04490965
4	0x3e3186af	0.17336534
5	0xbe565880	-0.20932198
6	0x3d2775a3	0.04088367
7	0xbe3f6d10	-0.18693948
8	0x3e2c9225	0.16852625
9	0x3e26d09a	0.16290513
10	0xbe99de62	-0.30052477
11	0xbe112f09	-0.14178099
12	0xbe464772	-0.19363192
13	0x3cd03da2	0.025420014
14	0xbe8a5237	-0.2701585
15	0x3e489411	0.19587733
16	0x3e7572fb	0.23969643
17	0xbd0d6d5e	-0.03452813
18	0xbdba810c	-0.09106645
19	0x3df3143c	0.11869094
20	0x3e4811e6	0.19538078
21	0x3e97a2e6	0.2961647
22	0xbe722b89	-0.2364942
23	0x3e797826	0.24362239
24	0xbecd7589	-0.40128735
25	0xbe7ec2c7	-0.24878989
26	0xbeae7fda	-0.34081918
27	0xbeb8170c	-0.35955083
28	0xbba45054	-0.0050144587
29	0xbea2b948	-0.31781983
30	0x3d8548a4	0.06507996
31	0x3c1dbab7	0.009627036
32	0x3e99efbf	0.30065724
33	0xbd0539aa	-0.032525696
34	0xbdfe5b93	-0.1241981
35	0xbee80519	-0.4531639
36	0xbdf94970	-0.1217221
37	0x3db12106	0.08648877
38	0xbdc6730e	-0.09689914
39	0xbe52afba	-0.20574847
40	0x3eb273c3	0.34853944
41	0x3de0e833	0.109817885
42	0xbdba6c8f	-0.09102737
43	0xbe0bc23a	-0.1364831
44	0xbe763286	-0.2404271
45	0x3e4d1306	0.20026788
46	0x3d887960	0.066637754
47	0xbecbca08	-0.39802575
48	0xbe2beb36	-0.16788945
49	0xbe920e0a	-0.28526336
50	0xbe5c53c1	-0.21516325
51	0xbe6a1b69	-0.22862019
52	0xbe03b9b6	-0.12863812
53	0xbe4ad59e	-0.19808051
54	0x3eab48a6	0.33453864
55	0x3e6b7340	0.22993183
56	0x3d0bf18d	0.034165908
57	0xbe0dd0d0	-0.13849187
58	0x3da87d41	0.08227015
59	0x3ea60d9d	0.3243226
60	0x3ead94c8	0.33902574
61	0xbc8c1060	-0.017097652
62	0x3ebea050	0.37231684
63	0xbeb42bf1	-0.35189775
64	0x3e74b09d	0.23895498
65	0xbd41bd38	-0.047299594
66	0xbe474312	-0.19459179
67	0xbe467fdd	-0.19384713
68	0xbc81e644	-0.01585687
69	0x3e327522	0.17427495
70	0xbda12908	-0.07869154
71	0x3e880266	0.2656433
72	0x3e24dfcb	0.16100995
73	0x3de092c1	0.10965491
74	0xbbdaa858	-0.0066729
75	0xbefc70ce	-0.49304813
76	0xbd3e3052	-0.0464328
77	0xbadb6590	-0.0016738642
78	0x3c8feda4	0.01756937
79	0x3d4d85ca	0.05017642
80	0xbe94ce72	-0.29063755
81	0xbe176d4d	-0.14787789
82	0x3b8df23e	0.004331856
83	0xbe4bb7b2	-0.19894293
84	0x3e9eebfa	0.3103941
85	0x3e38b69d	0.18038411
86	0xbe619718	-0.22030294
87	0x3d8be144	0.068300754
88	0xbe1b9228	-0.15192473
89	0x3dc0b5c7	0.09409671
90	0xbe32edde	-0.17473552
91	0x3d8ccffa	0.06875606
92	0x3e582732	0.21108702
93	0x3e8aa949	0.2708228
94	0xbd196d6e	-0.037457876
95	0x3dea8564	0.114512235
96	0x3cffaebc	0.03121125
97	0x3e937507	0.28800222
98	0x3d992e40	0.074795246
99	0x3ce3e84a	0.027820725
100	0xbe8be917	-0.2732627
101	0xbe6fcfa3	-0.23419051
102	0x3db26053	0.08709779
103	0x3e5e0326	0.21680889
104	0x3e9b8043	0.30371293
105	0xbe856532	-0.26053768
106	0x3dbedf11	0.0931989
107	0x3c4b2daa	0.012401024
108	0x3e336f55	0.17522939
109	0x3d1565de	0.0364741
110	0x3e2da1f7	0.16956316
111	0xbdf52362	-0.11969639
112	0x3e02cc52	0.12773255
113	0x3e4dc30f	0.2009394
114	0x3e24ea2e	0.16104957
115	0xbe1a37ba	-0.1506032
116	0xbd231e3e	-0.039823763
117	0x3cf4b152	0.02986971
118	0xbe1e8423	-0.15480094
119	0xbd930a57	-0.071797065
120	0xbec5ff30	-0.38671255
121	0x3d5f6206	0.05453684
122	0xbe980c1d	-0.29696742
123	0xbe5b3bd2	-0.21409538
124	0x3db9b962	0.09068562
125	0xbe43e5ac	-0.19130582
126	0x3cc97bde	0.024595197
127	0xbd18f7d2	-0.037345715

bn1.running_var f4 [128]
0	0x3e5330a5	0.20624025
1	0x3dd5d970	0.104418635
2	0x3e288c02	0.16459659
3	0x3e2dc049	0.16967882
4	0x3ee5accd	0.448584
5	0x3e75ed87	0.2401639
6	0x3e64c408	0.22340405
7	0x3e1e1a16	0.15439638
8	0x3e5ab756	0.21359
9	0x3fb8a6ae	1.4425867
10	0x3e35cab0	0.177531
11	0x3e5e0e0f	0.2168505
12	0x3ea03bd9	0.3129566
13	0x3fa4e198	1.2881346
14	0x3e803788	0.25042367
15	0x3edfb1d6	0.43690366
16	0x3e3159ef	0.17319463
17	0x3e1cc1a5	0.15308245
18	0x3e503d68	0.20335925
19	0x3ed8c47f	0.42337415
20	0x3f372815	0.71545535
21	0x3da9c213	0.0828897
22	0x3e7375a6	0.23775348
23	0x3dcd2db9	0.100184865
24	0x3e608406	0.21925363
25	0x3dc67f2a	0.09692223
26	0x3e5cd2ac	0.2156474
27	0x3e6fa875	0.23404105
28	0x3f00b7db	0.5028054
29	0x3ef8ab1a	0.4856804
30	0x3fc2b7c3	1.521233
31	0x3e2ded63	0.16985087
32	0x3ed0bea1	0.40770438
33	0x3e2981cb	0.16553418
34	0x3e8070bf	0.25086018
35	0x3e9733e9	0.29531792
36	0x3e2e17b1	0.17001225
37	0x3e2b6939	0.16739358
38	0x3f110210	0.5664377
39	0x3e5d10a3	0.21588378
40	0x3ed72bbb	0.4202555
41	0x3f038219	0.5137039
42	0x3e551a3d	0.2081079
43	0x3e60d2aa	0.21955362
44	0x3e4b1d84	0.19835478
45	0x3e7a514a	0.24445072
46	0x3e4f4f2c	0.20245045
47	0x3e763f06	0.24047479
48	0x3e352a67	0.17691956
49	0x3de8da99	0.11369819
50	0x3eb50ba1	0.35360435
51	0x3ed44590	0.41459322
52	0x3ea1f336	0.31630868
53	0x3e76cdf2	0.24102
54	0x3e0b3482	0.13594249
55	0x3e7231ce	0.23651811
56	0x3eefec12	0.46859795
57	0x3ec2e0b4	0.3806206
58	0x3df958ab	0.12175115
59	0x3e27a772	0.16372469
60	0x3e2d4c29	0.16923584
61	0x3ee4d07c	0.4469031
62	0x3d9b501c	0.07583639
63	0x3ec42d75	0.3831593
64	0x3e9310bb	0.28723702
65	0x3e8a871c	0.27056205
66	0x3e69b106	0.22821435
67	0x3e07d147	0.13263427
68	0x3e670eae	0.22564194
69	0x3ec776b0	0.3895774
70	0x3ee8e8ec	0.45490205
71	0x3e7fdb66	0.24986038
72	0x3dea5afb	0.114431344
73	0x3e5d37c0	0.21603298
74	0x3e6d1e40	0.2315607
75	0x3d4c72b2	0.04991407
76	0x3ec523ee	0.38503975
77	0x3e8a2a0f	0.26985213
78	0x3e44a4f8	0.19203556
79	0x3e4a85e0	0.19777632
80	0x3edb0f0f	0.42784926
81	0x3e582332	0.21107176
82	0x3e161891	0.14657809
83	0x3e550e50	0.20806241
84	0x3e51e0ea	0.20495954
85	0x3f0e8d2a	0.5568415
86	0x3e7f8f79	0.24957074
87	0x3fb0b4a2	1.3805125
88	0x3ec463be	0.38357347
89	0x3e93a9b2	0.28840405
90	0x3e28b5d4	0.16475612
91	0x3e202693	0.15639715
92	0x3f034446	0.5127605
93	0x3e2ee82e	0.17080757
94	0x3f1e837a	0.6191937
95	0x3e19761a	0.14986458
96	0x3ec10703	0.37700662
97	0x3df28f8d	0.118437864
98	0x3e42b0c9	0.1901275
99	0x3e8f9394	0.2804228
100	0x3dfe7bd4	0.12425962
101	0x3f6269ee	0.88442886
102	0x3e84f778	0.25970054
103	0x3dfa099c	0.12208864
104	0x3ef68e16	0.48155278
105	0x3e7718d7	0.2413057
106	0x3e105df8	0.14098346
107	0x3e83f211	0.2577062
108	0x3e2353e4	0.1594997
109	0x4074d47c	3.825469
110	0x3e17a376	0.14808449
111	0x3e3a8258	0.18213785
112	0x3eb55b65	0.3542129
113	0x3e4848f6	0.19559082
114	0x402f4820	2.7387772
115	0x3f32cccf	0.69843763
116	0x3e59524b	0.21222799
117	0x3e04fbe8	0.1298672
118	0x3e0fae03	0.14031224
119	0x3e89411f	0.26807496
120	0x3e89de61	0.26927474
121	0x3f7cf95a	0.9881798
122	0x3e1d06a1	0.1533456
123	0x3e3bb48b	0.1833059
124	0x3e1beda5	0.15227373
125	0x3e98b326	0.2982418
126	0x3e2ef533	0.17085724
127	0x408beb10	4.372444

layer2.weight f4 [64, 128]
0	0x3e411efa	0.18859473
1	0x3d9f76a2	0.07786299
2	0x3e7ed5ff	0.2488632
3	0xbdff0bd9	-0.12453432
4	0xbd4f2812	-0.050575323
5	0xbe5ee208	-0.21765912
6	0x3c27009c	0.010193016
7	0x3d676a9b	0.05649815
8	0x3cfc4832	0.030796144
9	0xbda0bdd1	-0.078487046
10	0xbd0e6954	-0.034768417
11	0xbc22529f	-0.009907394
12	0x3de1f590	0.110331655
13	0x3e5751fc	0.21027368
14	0x3db4affb	0.08822628
15	0xbdbf0541	-0.09327174
16	0x3d041de2	0.03225506
17	0xbd6409f6	-0.055673562
18	0x3bafa8d8	0.005360704
19	0x3db2679f	0.087111704
20	0x3c825b06	0.015912544
21	0xbe35801b	-0.1772465
22	0x3d888e3f	0.06667756
23	0xbc129592	-0.008946793
24	0xbe2d72d1	-0.1693833
25	0xbe95c09e	-0.29248518
26	0x3e50e401	0.20399477
27	0x3d81c1d8	0.06335801
28	0x3eea6189	0.45777538
29	0x3e2ef19a	0.17084351
30	0xbdcd2c87	-0.100182585
31	0xbe007399	-0.12544097
32	0xbde3717b	-0.11105629
33	0xbe6c90d4	-0.23102123
34	0x3ede606f	0.43432948
35	0x3ec7e439	0.39041308
36	0x3da8ec99	0.082482524
37	0xbd5519b6	-0.052026473
38	0x3e66fecb	0.22558133
39	0xbd2a1d1c	-0.041531667
40	0xbe442fcb	-0.19158857
41	0x3e5c5681	0.21517374
42	0xbec6ff88	-0.3886683
43	0xbe46d0a1	-0.19415523
44	0x3e5a5e57	0.2132505
45	0xbe782e1c	-0.2423634
46	0x3bdbde76	0.006709869
47	0x3e918534	0.28421938
48	0x3e896b2d	0.2683958
49	0x3d67e769	0.056617174
50	0x3dbefe29	0.09325821
51	0x3ee85c3b	0.45382866
52	0x3ead0f09	0.33800533
53	0x3d73a81e	0.0594865
54	0xbd522b25	-0.051310677
55	0x3d843883	0.06456091
56	0xbb26d1a6	-0.002545455
57	0x3e59f830	0.21286082
58	0xbee6fd93	-0.45115337
59	0xbf0e486b	-0.5557925
60	0xbe1908ae	-0.14944717
61	0x3e3b2ed6	0.18279585
62	0xbee48658	-0.44633746
63	0x3eb7c2e0	0.35890865
64	0xbd9c3237	-0.07626765
65	0xbf18e63f	-0.5972633
66	0x3eb649c3	0.3560315
67	0xbe74194c	-0.23837775
68	0xbd6acd91	-0.05732495
69	0xbb303476	-0.0026886738
70	0xbcadeafa	-0.02123021
71	0xbd361797	-0.04445609
72	0x3e94fed8	0.2910068
73	0xbf18c56c	-0.5967624
74	0x3dcdd032	0.10049476
75	0x3e435193	0.19074087
76	0x3d884a47	0.06654792
77	0xbe704190	-0.2346251
78	0xbcf94f86	-0.030433428
79	0xbe8bb78e	-0.2728848
80	0x3ead9f37	0.33910534
81	0x3e12851e	0.14308593
82	0xbeb716d1	-0.35759595
83	0xbe6a560e	-0.2288439
84	0xbe10cf1c	-0.14141506
85	0xbdd5a954	-0.104326874
86	0x3ec2b8ec	0.3803171
87	0x3e0d8bf6	0.13822922
88	0x3d52674c	0.051368043
89	0x3bff4721	0.0077904616
90	0x3c93b004	0.018028267
91	0xbea23537	-0.31681225
92	0xbdeb7004	-0.11495975
93	0x3dc5709d	0.0964062
94	0x3ed60a54	0.41804755
95	0xbd93e5de	-0.07221578
96	0xbc94d2de	-0.018166956
97	0xbd9d9213	-0.07693877
98	0xbf2736de	-0.65318096
99	0xbd9982a6	-0.07495622
100	0xbe9d21a2	-0.30689722
101	0x3dc60a0e	0.096698865
102	0x3e7d9a6d	0.2476594
103	0x3d2c2634	0.04202862
104	0xbd7ae512	-0.061253615
105	0x3e2699ce	0.1626961
106	0x3d5daf34	0.054122165
107	0x3d3e8d1d	0.046521295
108	0x3b777a16	0.0037761978
109	0xbec4f9cd	-0.38471833
110	0xbe72ecb1	-0.23723103
111	0xbca4f952	-0.020138416
112	0xbcfc374f	-0.030788092
113	0xbc478a16	-0.012178918
114	0x3df0dbae	0.117606506
115	0x3e2d16c1	0.16903211
116	0x3e879b03	0.26485452
117	0x3e0f98bc	0.14023107
118	0x3c7e0f15	0.0155065255
119	0x3d08a847	0.033363607
120	0x3ed68826	0.41900748
121	0xbe53d617	-0.20687138
122	0x3e0ccddb	0.13750403
123	0xbe050799	-0.1299118
124	0x3d48f187	0.049058463
125	0xbce87d73	-0.028380131
126	0x3d918dcd	0.071071245
127	0xbe7b42fc	-0.24537271
128	0x3eabb5ec	0.33537233
129	0x3e58c5ee	0.21169254
130	0x3ea2bd26	0.31784934
131	0x3e851c25	0.25998035
132	0xbd0312ab	-0.032000225
133	0xbce03ec4	-0.027373679
134	0x3e79aeb8	0.24383056
135	0x3e72a224	0.23694664
136	0xbda16021	-0.07879663
137	0xbf1d0526	-0.6133598
138	0x3df6785d	0.12034676
139	0x3dd447e1	0.10365272
140	0x3dd6399a	0.104602054
141	0x3e46dc54	0.19419986
142	0x3e1fe9a1	0.15616466
143	0x3e11d601	0.14241792
144	0xbea41403	-0.32046518
145	0xbe03cff9	-0.12872304
146	0xbdc969b9	-0.09834618
147	0xbe503a54	-0.2033475
148	0xbe6b666a	-0.22988287
149	0x3d945010	0.07241833
150	0x3e1b742e	0.15181038
151	0x3e0bc214	0.13648254
152	0x3eabac0a	0.33529693
153	0xbe918955	-0.2842509
154	0x3df2b8de	0.11851667
155	0x3d39c8d2	0.045357533
156	0x3e98a3f4	0.29812586
157	0x3e7abad5	0.24485333
158	0xbd888628	-0.06666213
159	0xbdf8ba14	-0.121448666
160	0xbe2f6fea	-0.17132536
161	0xbdc415ff	-0.09574508
162	0x3ea06781	0.31328967
163	0x3e52d051	0.20587279
164	0x3d3d62cd	0.046236802
165	0xbd98c5d1	-0.074596055
166	0x3e52f3ca	0.2060081
167	0xbda63880	-0.08116245
168	0xbdb9cd5a	-0.09072371
169	0x3db8dcf7	0.09026521
170	0xbed04c06	-0.40683
171	0x3cc50939	0.02405225
172	0x3e8935f4	0.26798975
173	0x3e2d9227	0.16950284
174	0xbead76ce	-0.33879703
175	0x3e12cd10	0.14336038
176	0x3df51fc4	0.119689494
177	0xbe2d2632	-0.16909102
178	0x3e19d456	0.15022406
179	0x3e787a86	0.24265489
180	0x3d6cfabd	0.05785631
181	0x3dce22d2	0.10065235
182	0xbea3ddc0	-0.3200512
183	0x3d5b7ac8	0.05358389
184	0x3de972ce	0.113988504
185	0x3ea0172d	0.31267682
186	0xbedd13a3	-0.43179044
187	0xbeb68a04	-0.35652173
188	0xbe761698	-0.24032056
189	0x3d28b516	0.041188322
190	0xbb8ce4b3	-0.004299724
191	0x3ece2f1a	0.4027031
192	0x3e11a4fb	0.14223091
193	0xbe709524	-0.23494393
194	0x3ef13471	0.47110322
195	0xbe5620fd	-0.20911022
196	0xbd42af4d	-0.04753046
197	0xbb9afa8b	-0.004729574
198	0x3df75c46	0.12078147
199	0xbea5bcd8	-0.3237064
200	0x3eb757c2	0.3580914
201	0xbea99e1b	-0.33128437
202	0xbd79d8cd	-0.060997773
203	0x3e14a40b	0.14515702
204	0xbe88ed5b	-0.26743588
205	0xbda08fd3	-0.07839932
206	0x3defc2af	0.11707055
207	0x3d97b0e3	0.07406785
208	0x3eb9d1c8	0.36292863
209	0x3e59be8b	0.21264093
210	0xbea1b8e3	-0.3158637
211	0xbc299d7e	-0.0103524905
212	0xbe793b32	-0.24338987
213	0xbedbd799	-0.42937925
214	0x3e342975	0.1759394
215	0xbe923f9a	-0.2856415
216	0x3e4e1943	0.20126824
217	0xbcc3d36e	-0.023904528
218	0xbd842378	-0.064520776
219	0xbe975c93	-0.29562816
220	0x3cc8c28c	0.02450683
221	0x3db308b2	0.08741893
222	0x3df04a9e	0.11732982
223	0x3dc450b4	0.095857054
224	0x3e2eae21	0.17058612
225	0x3e09345f	0.13398884
226	0xbeeb96d4	-0.4601351
227	0x3e139033	0.14410476
228	0xbd693d8c	-0.05694346
229	0x3e3ed202	0.18634799
230	0xbd26665b	-0.040624958
231	0x3dc7a40c	0.09748086
232	0x3d5fdb40	0.054652452
233	0x3c74ec1b	0.01494887
234	0x3d83d544	0.064371616
235	0xbd7addf2	-0.06124682
236	0xbcf892bf	-0.030343411
237	0xbec1e56e	-0.37870353
238	0xbe63eab7	-0.22257505
239	0xbdbe58a7	-0.09294253
240	0xbb230d3a	-0.002487971
241	0xbdab2b21	-0.083578356
242	0x3e74e354	0.23914844
243	0x3cca5bc7	0.024701966
244	0x3df99f5c	0.121885985
245	0x3e4fba13	0.20285825
246	0xbe09f2c1	-0.1347151
247	0x3d174ed9	0.03694043
248	0x3e6744cf	0.22584842
249	0xbf1aa68d	-0.60410386
250	0x3daf0fc9	0.08547933
251	0xbeddf731	-0.43352655
252	0x3d903801	0.07041932
253	0xbe0ff1fd	-0.14057155
254	0x3deb0c03	0.114769004
255	0xbeae0672	-0.33989292

layer2.bias f4 [64]
0	0x3d3d5b37	0.046229567
1	0x3d52d71b	0.05147467
2	0xbd9a753d	-0.07541893
3	0xbd984ccb	-0.07436522
4	0x3d145f18	0.0362235
5	0x3d55be31	0.052183334
6	0xbd9eac58	-0.07747716
7	0x3dafe2ad	0.08588157
8	0xbca445f1	-0.020052882
9	0xbd93ac48	-0.072105944
10	0xbd86a5b4	-0.06574574
11	0xbc9a86e1	-0.018863143
12	0x3d42c385	0.047549743
13	0xbd78e35f	-0.060763713
14	0x3d8357ea	0.06413253
15	0x3db4f718	0.08836192
16	0x3da7399b	0.08165284
17	0x3d2030cf	0.039109048
18	0xbd0a0fe6	-0.03370657
19	0xbd0d11cc	-0.0344408
20	0x3d7a1ed1	0.061064545
21	0xbca16bf1	-0.01970479
22	0x3c5b8e1d	0.013400582
23	0x3db22c1d	0.0869982
24	0xbdb320a9	-0.08746464
25	0xbc9cb8ae	-0.01913103
26	0xbd0efe1a	-0.0349103
27	0xbc73409a	-0.014846945
28	0x3b97324e	0.004614151
29	0xbc8b57c8	-0.01700963
30	0x3db19162	0.08670308
31	0x3d14d4cb	0.036335748
32	0xbd679b4d	-0.05654459
33	0x3da9c9de	0.08290456
34	0xbccc34d9	-0.024927543
35	0x3c62ecc6	0.0138503965
36	0x3be297ee	0.006915084
37	0xbd849d68	-0.06475335
38	0x3d3be37b	0.04587124
39	0xbd57fa0c	-0.052728698
40	0xbda154af	-0.0787748
41	0x3d9516b8	0.07279724
42	0x3d56f697	0.05248126
43	0xbd24e581	-0.040257934
44	0xbd82ca5f	-0.063862555
45	0x3da30e1a	0.07961674
46	0x3d01cd4e	0.031689934
47	0xbd746424	-0.059665814
48	0xbd9a07c8	-0.075210154
49	0xbd1bacaf	-0.03800648
50	0xbd4e0842	-0.050300844
51	0x3bc05554	0.005869547
52	0x3c24a489	0.010048994
53	0xbdb01174	-0.08597079
54	0x3d316a2c	0.043314144
55	0x3d3d8e72	0.046278425
56	0xbda0aa9a	-0.0784504
57	0x3d959adf	0.0730493
58	0xbd09bd0c	-0.033627555
59	0x3d3617b3	0.044456195
60	0x3db73bf8	0.08946985
61	0x3d5496b8	0.05190155
62	0x3d756506	0.059910797
63	0x3b569950	0.003274519

bn2.weight f4 [64]
0	0x3f9ed0fc	1.2407527
1	0x3f3566b8	0.7085986
2	0x3f36c979	0.7140117
3	0x3f414916	0.75502145
4	0x3f7f1f57	0.99657196
5	0x3f8fba70	1.1228771
6	0x3f441e64	0.7660887
7	0x3f7dea0e	0.99185264
8	0x3f50cf11	0.8156596
9	0x3f6610a8	0.89869165
10	0x3f8a6e07	1.0814828
11	0x3f4e588f	0.8060388
12	0x3f90e1e7	1.131894
13	0x3f8cba9d	1.099445
14	0x3f935fab	1.151357
15	0x3f2e9100	0.6819
16	0x3f54d0df	0.8313121
17	0x3fbaa618	1.4581938
18	0x3f89b868	1.0759401
19	0x3fb175fc	1.3864131
20	0x3f4a033b	0.7891118
21	0x3f6898bf	0.9085807
22	0x3f7ef28d	0.99588853
23	0x3f5175a4	0.8182013
24	0x3f61afe9	0.8815904
25	0x3fa096ce	1.2546022
26	0x3f843a04	1.0330205
27	0x3f66c336	0.9014162
28	0x3f4831b5	0.78200847
29	0x3f8d3d61	1.1034356
30	0x3f5e2189	0.8676992
31	0x3f781014	0.96899533
32	0x3f987715	1.1911341
33	0x3f9724e2	1.1808131
34	0x3f84fd11	1.038973
35	0x3f96739c	1.1754031
36	0x3f721691	0.94565684
37	0x3f417401	0.7556763
38	0x3f395b1d	0.7240465
39	0x3f92a145	1.1455466
40	0x3f84ab72	1.0364821
41	0x3f75e52e	0.96052825
42	0x3f86eea5	1.0541579
43	0x3f6fe749	0.9371229
44	0x3f7f0d3d	0.99629575
45	0x3f6aa2c0	0.91654587
46	0x3f514171	0.8174048
47	0x3fa7415f	1.3066825
48	0x3f5cbf3e	0.8622931
49	0x3f2edad9	0.68302685
50	0x3f6e7d57	0.93160003
51	0x3f8bc660	1.0919914
52	0x3f854656	1.041209
53	0x3f61f0f6	0.882583
54	0x3f444aa9	0.7667642
55	0x3f8230e6	1.0171173
56	0x3f7089a1	0.93960005
57	0x3f65ad8c	0.89717937
58	0x3fbf5742	1.4948504
59	0x3f6c83d5	0.9238866
60	0x3f473f2f	0.77830786
61	0x3f65590e	0.8958901
62	0x3f528898	0.82239676
63	0x3f782eda	0.9694649

bn2.bias f4 [64]
0	0xbee3abaf	-0.44466922
1	0xbf0efb94	-0.5585263
2	0x3e3e41f8	0.18579853
3	0xbe79a830	-0.24380565
4	0xbe196d28	-0.14983046
5	0xbedd46e8	-0.4321816
6	0xbd0d168d	-0.034445334
7	0xbeca1fcd	-0.39477387
8	0x3c5d81f1	0.01351975
9	0xbe98f3fd	-0.29873648
10	0xbe174090	-0.14770722
11	0xbed75a58	-0.42061114
12	0xbee2104c	-0.4415306
13	0xbbfa3579	-0.007635769
14	0xbe0219fd	-0.12705226
15	0xbea5a121	-0.32349494
16	0xbefb4073	-0.49072608
17	0xbe903644	-0.281664
18	0xbddcc859	-0.10780401
19	0x3aeb6907	0.0017960378
20	0x3d377541	0.044789556
21	0xbd7b7162	-0.061387427
22	0xbea8c1ab	-0.32960257
23	0xbea7f06d	-0.32800618
24	0x3e39a0fd	0.18127818
25	0xbee0adcb	-0.43882594
26	0xbf0a35b3	-0.5398819
27	0xbe1a5c55	-0.15074284
28	0xbcab4136	-0.020905118
29	0xbdcc012b	-0.0996116
30	0xbe90f765	-0.28313747
31	0xbf0adcb1	-0.54243
32	0xbe04c013	-0.12963895
33	0xbe258d97	-0.16167293
34	0xbd696830	-0.056984127
35	0xbea51909	-0.32245663
36	0xbf3ceeba	-0.7380177
37	0xbeb063a5	-0.34451023
38	0x3e0b8d56	0.13628134
39	0xbebc4847	-0.36773893
40	0xbeffd6f5	-0.49968687
41	0x3d6c512b	0.057694595
42	0x3db5f9e1	0.08885551
43	0xbe426ce0	-0.18986845
44	0xbe807ac4	-0.25093663
45	0xbea167c4	-0.3152448
46	0xbf0f5709	-0.5599218
47	0xbde385d2	-0.111095086
48	0xbf2bc890	-0.6710291
49	0xbdbc0fbb	-0.09182688
50	0x3cbf38d3	0.023342526
51	0xbee1f453	-0.44131717
52	0xbe3fdc43	-0.18736367
53	0xbe9861ee	-0.29762214
54	0xbf13fad2	-0.57804596
55	0xbc944c1a	-0.018102694
56	0xbf04fd4a	-0.5194899
57	0x3d988abc	0.074483365
58	0xbe3430bf	-0.1759672
59	0xbeb9b810	-0.3627324
60	0xbdd8bd8f	-0.105830304
61	0xbf28308a	-0.65699065
62	0x3d5ab5ea	0.053396143
63	0x3dbeb2f7	0.093114786

bn2.running_mean f4 [64]
0	0xbe065363	-0.13117747
1	0xbec930e9	-0.39295128
2	0x3d9732b9	0.073827215
3	0xbf99deae	-1.2021081
4	0xc009a966	-2.1509643
5	0xc02b2ac3	-2.674485
6	0xbfa44716	-1.2834194
7	0xc00556a5	-2.0834134
8	0xbf9b3132	-1.2124388
9	0xc0209d4b	-2.5096004
10	0x3e93e3ae	0.28884643
11	0xc022d152	-2.544026
12	0xbfd674d4	-1.6754403
13	0xc00d5744	-2.2084513
14	0xbfdda274	-1.7315202
15	0xbef3b3ec	-0.47598207
16	0xbf80b43c	-1.0055003
17	0xbf6588cd	-0.89661866
18	0xbf866389	-1.0499126
19	0xbfcdabbc	-1.6068034
20	0xbf339649	-0.7015119
21	0xbfd61260	-1.6724358
22	0x3f27cbce	0.65545356
23	0x3f757279	0.95877796
24	0xbc73f960	-0.014890999
25	0xc02bde98	-2.685461
26	0xbfa4d1f2	-1.287657
27	0xbfd998a1	-1.6999704
28	0xbe91f820	-0.28509617
29	0xbfe5512e	-1.7915399
30	0xbeae8527	-0.34085962
31	0xc0249e9c	-2.5721807
32	0x3f0b3cb6	0.5438951
33	0x3fdc565f	1.7213858
34	0xbfe3b6de	-1.7790182
35	0xbeb4c88f	-0.35309264
36	0x3d404eea	0.04695026
37	0xbe9e43a7	-0.3091099
38	0xc0039622	-2.0560384
39	0x3f2dad26	0.6784233
40	0xbff8414e	-1.939493
41	0x3fceaf22	1.6147196
42	0xbff2ceb9	-1.8969337
43	0xbf9cf917	-1.2263516
44	0xbf8085b8	-1.0040808
45	0x3dd33f84	0.10314849
46	0xbfd8e871	-1.6945935
47	0xbf10337b	-0.5632855
48	0xc03bf078	-2.936552
49	0xbfb15a05	-1.3855597
50	0xbed35a8f	-0.41280028
51	0xc026e8ea	-2.607966
52	0x3ef606f6	0.48052186
53	0xbf0175df	-0.5057048
54	0xc0666476	-3.5998816
55	0xbef5c8fa	-0.48004895
56	0xbf8f5f60	-1.1200981
57	0x3ec0adb6	0.3763253
58	0xc013cf01	-2.3095095
59	0xc01c87e9	-2.4457953
60	0x3fde2363	1.7354549
61	0xc04ba89b	-3.1821659
62	0xbe2b8622	-0.16750386
63	0xbff19e78	-1.8876486

bn2.running_var f4 [64]
0	0x40b5fe89	5.687321
1	0x40befd3d	5.968413
2	0x4091f16a	4.5607195
3	0x402eccf2	2.7312589
4	0x4100bbde	8.045866
5	0x40be7fc9	5.953099
6	0x408113aa	4.0336504
7	0x40965128	4.697407
8	0x40702213	3.7520797
9	0x415aa6bc	13.665707
10	0x4086bfe2	4.210923
11	0x40d5d2e8	6.6819954
12	0x40dc0cd1	6.8765645
13	0x408fc807	4.4931674
14	0x4093ed33	4.622705
15	0x40240840	2.5630035
16	0x401df972	2.46835
17	0x409bbded	4.8669343
18	0x40b004d2	5.5005884
19	0x410cd5c0	8.802185
20	0x4042361d	3.0345528
21	0x40665273	3.5987823
22	0x40b19852	5.549844
23	0x4080d38c	4.0258236
24	0x40bc2a01	5.8801274
25	0x40d713fa	6.7211885
26	0x4042e48f	3.0452
27	0x413d9bd3	11.850543
28	0x408f4eb9	4.4783597
29	0x410a351c	8.637966
30	0x40b40d64	5.6266346
31	0x411ffb31	9.998826
32	0x4093122e	4.595969
33	0x409b0153	4.8439116
34	0x412678bc	10.404476
35	0x40c80891	6.2510457
36	0x40a4e55d	5.1529984
37	0x40d0eea9	6.5291333
38	0x405cb069	3.4482672
39	0x40b500f4	5.6563663
40	0x40b5b654	5.678507
41	0x40f03e4a	7.5076036
42	0x413d16f9	11.818109
43	0x409e870a	4.9539843
44	0x404e3a9d	3.2223275
45	0x40aa5e3d	5.3240037
46	0x4061bcba	3.527144
47	0x40b79c32	5.737817
48	0x40e88c15	7.2671
49	0x4036b345	2.8546917
50	0x40bded97	5.9352527
51	0x4157a7f6	13.478506
52	0x40b0899e	5.516799
53	0x404c9f29	3.1972144
54	0x41099710	8.5993805
55	0x40f35d93	7.6051726
56	0x406b92aa	3.6808267
57	0x412920d8	10.5705185
58	0x411bf863	9.748141
59	0x40a25ff9	5.0742154
60	0x40b252d3	5.5726104
61	0x40d00d17	6.501598
62	0x4125a9fe	10.354002
63	0x40cd64bb	6.418546

layer3.weight f4 [32, 64]
0	0xbd831bc5	-0.06401781
1	0xbe59190a	-0.21200958
2	0xbd45dfa0	-0.04830897
3	0x3e7a0377	0.24415384
4	0xbf131a9d	-0.57462484
5	0xbd89a7f9	-0.06721491
6	0xbdd563bb	-0.10419413
7	0x3e0aa261	0.13538505
8	0xbef660f1	-0.48120835
9	0xbe0e0971	-0.13870789
10	0xbd00a4e1	-0.03140724
11	0xbe7f2c26	-0.24919185
12	0x3dc1a4a2	0.09455229
13	0x3dd6ffc8	0.10498005
14	0x3d010081	0.03149462
15	0xbe302b30	-0.17203975
16	0xbdd373c0	-0.10324812
17	0xbf87316c	-1.0561957
18	0xbe19752b	-0.14986102
19	0xbed1b8d0	-0.40961313
20	0xbf0d851c	-0.55281234
21	0xbe9a2bd4	-0.30111563
22	0xbddeec95	-0.10884968
23	0x3da29851	0.07939208
24	0x3d36d90e	0.044640593
25	0xbd85ccaa	-0.06533177
26	0x3d514b42	0.051097162
27	0xbe4b1081	-0.19830514
28	0xbe67bd31	-0.22630765
29	0x3b8d49ad	0.0043117614
30	0xbdf9adf5	-0.12191383
31	0x3d057765	0.032584567
32	0x3dd84c62	0.10561444
33	0x3dc1e183	0.09466841
34	0x3dbecdfb	0.093166314
35	0xbe780a38	-0.24222648
36	0xbdcd3e66	-0.10021667
37	0x3d305b32	0.04305572
38	0xbd3523fa	-0.044223763
39	0xbdf7d827	-0.12101775
40	0xbe152680	-0.14565468
41	0xbd900c70	-0.07033622
42	0x3e2a9aae	0.16660568
43	0xbe0a5358	-0.13508356
44	0xbdd00d2d	-0.10158763
45	0xbe9ce589	-0.3064387
46	0x3e30ad03	0.17253499
47	0x3ce3009f	0.027710257
48	0xbd840e05	-0.064479865
49	0xbec34f84	-0.38146603
50	0xbf07af98	-0.5300231
51	0xbd57a343	-0.052645933
52	0x3dd15170	0.10220611
53	0xbea42358	-0.32058215
54	0xbbe3b683	-0.0069492473
55	0xbddcc21e	-0.107792124
56	0xbd2fc396	-0.042911135
57	0xbc9f30ec	-0.019432507
58	0xbd001762	-0.0312723
59	0xbe3091cc	-0.17243117
60	0xbdc1ee99	-0.09469337
61	0x3e3e0c38	0.18559349
62	0xbe40dc15	-0.18833955
63	0x3cf21eef	0.029555766
64	0xbf28d800	-0.6595459
65	0xbf048dab	-0.5177867
66	0xbf24053c	-0.6407049
67	0xbe2c70b1	-0.16839863
68	0xbc8a893f	-0.016911147
69	0x3ead6c62	0.33871752
70	0x3e9dcd6f	0.30820796
71	0xbd724a02	-0.05915261
72	0xbd2e50c4	-0.042557493
73	0x3e81a5ad	0.25321713
74	0x3c9b38e5	0.018948028
75	0x3e976a7a	0.29573423
76	0xbd9d5594	-0.07682338
77	0x3e521006	0.20513925
78	0x3eb37a72	0.35054356
79	0xbcec25a5	-0.028826544
80	0xbf007d08	-0.5019078
81	0x3cabb68b	0.020961067
82	0x3d902fee	0.07040392
83	0x3dcf84c8	0.10132748
84	0xbe1470ef	-0.14496206
85	0xbcc557c4	-0.024089701
86	0xbed92274	-0.42409098
87	0x3ca662e8	0.020310834
88	0x3c1c7c98	0.00955119
89	0xbd2b1218	-0.041765302
90	0x3d4d6d93	0.050153326
91	0xbdc8f761	-0.09812809
92	0xbf405a90	-0.7513819
93	0x3dc97d7d	0.09838388
94	0xbf335f53	-0.7006733
95	0xbd01c4a0	-0.031681657
96	0x3d95c275	0.0731248
97	0x3d3118ed	0.04323666
98	0x3ebb7675	0.36613813
99	0xbf24ab01	-0.6432343
100	0xbf14b7f4	-0.5809319
101	0xbe3a8ab0	-0.18216968
102	0x3eb60c7c	0.355564
103	0x3d20a16b	0.03921644
104	0xbc95c365	-0.018281648
105	0x3df2651d	0.11835692
106	0x3e6c33eb	0.2306668
107	0xbdf38465	-0.11890487
108	0x3cb9fa2d	0.0227023
109	0x3cf3cade	0.02975982
110	0xbe96dd53	-0.29465732
111	0x3d944926	0.072405145
112	0x3ea4b63f	0.32170293
113	0x3dca631b	0.09882184
114	0x3c14c7f7	0.009080878
115	0x3e3ce85d	0.18448015
116	0x3e2a4fcd	0.16632004
117	0xbe2059db	-0.15659277
118	0x3cb90098	0.022583291
119	0x3e6c9e20	0.23107195
120	0xbe8dbbd1	-0.27682355
121	0x3e8bb8aa	0.27289325
122	0x3e8736e6	0.26409072
123	0x3d384b93	0.04499395
124	0xbce99981	-0.02851558
125	0xbd9fd14e	-0.078035936
126	0x3e1a947b	0.15095703
127	0x3eb5f6ac	0.35539758
128	0xbf7a25a1	-0.9771367
129	0xbf0c8b26	-0.54899824
130	0xbc929c75	-0.01789687
131	0x3d5a2183	0.053254616
132	0xbd2bcd25	-0.041943688
133	0xbe8f98d4	-0.28046286
134	0xbe9d089f	-0.3067064
135	0xbd3aa804	-0.04557039
136	0x3ca53ec2	0.020171527
137	0xbd47cc18	-0.048778623
138	0xbe0f17de	-0.13973948
139	0xbe11e359	-0.14246882
140	0xbde8bfda	-0.11364718
141	0x3da1117c	0.07864663
142	0xbca9ba4d	-0.020718718
143	0xbec0c3e7	-0.37649462
144	0xbf25ac7f	-0.64716333
145	0x3d5e3ee1	0.054259185
146	0x3d19f54e	0.037587456
147	0x3d0c0cad	0.034191776
148	0x3ce1ada4	0.027548619
149	0xbdf1e502	-0.11811258
150	0xbe2dd12c	-0.16974324
151	0xbeb598ae	-0.35468048
152	0xbe6a218b	-0.22864358
153	0xbee4fe55	-0.4472529
154	0xbe5689a7	-0.20950948
155	0xbe3910d0	-0.1807282
156	0xbe2da679	-0.16958036
157	0xbc3b27a7	-0.011423028
158	0xbf2be241	-0.6714211
159	0x3e99c42d	0.30032483
160	0xbdeac935	-0.114641584
161	0xbe880f27	-0.2657406
162	0x3db72b05	0.08943752
163	0xbf0d8cae	-0.55292785
164	0xbf4c6a31	-0.79849535
165	0x3e7ec748	0.24880707
166	0xbe67b033	-0.22625808
167	0xbe4841b6	-0.19556317
168	0x3e013489	0.12617697
169	0xbdabd716	-0.08390634
170	0x3e43a7c9	0.19106974
171	0xbdad1207	-0.08450704
172	0x3e1da4ee	0.15394947
173	0xbe7975e0	-0.24361372
174	0x3e084add	0.13309808
175	0xbcea0e06	-0.02857114
176	0x3d5ec973	0.054391336
177	0xbd1eb678	-0.038748235
178	0xbbde75af	-0.0067889313
179	0xbeb2d396	-0.34927052
180	0xbea0418a	-0.31300002
181	0xbea0c31d	-0.3139886
182	0x3e318918	0.17337453
183	0x3cb1ed09	0.021719472
184	0x3db34f2a	0.08755334
185	0xbd180cef	-0.03712171
186	0x3e188e3f	0.14898013
187	0x3ea04848	0.31305146
188	0xbe309bc9	-0.17246927
189	0x3e7efb26	0.24900493
190	0x3c4e9571	0.012608872
191	0xbde63400	-0.11240387
192	0xbed0744c	-0.40713727
193	0xbe4bffbb	-0.19921772
194	0xbf03e740	-0.51524734
195	0xbfccc94f	-1.5998935
196	0xbdb9729e	-0.090550646
197	0xbecf09b3	-0.40437087
198	0xbbb63ce1	-0.0055614565
199	0xbd37ee80	-0.044905186
200	0x3def5518	0.11686152
201	0xbf0b3307	-0.54374737
202	0xbd73315f	-0.059373256
203	0xbda066dc	-0.07832119
204	0xbf783aad	-0.9696453
205	0x3e6ff4fa	0.23433295
206	0x3e91b135	0.2845551
207	0xbda25883	-0.079270385
208	0xbf4471c8	-0.76736116
209	0xbcea1bc4	-0.028577693
210	0x3d78ab14	0.060710028
211	0xbda65239	-0.081211515
212	0x3e3251e7	0.17414056
213	0xbcb3ab70	-0.021932334
214	0xbef32fff	-0.47497556
215	0xbdb1f246	-0.08688788
216	0xbe7b0103	-0.24512105
217	0x3ca5d805	0.020244608
218	0xbd2b6a61	-0.041849498
219	0xbeaf1d09	-0.3420184
220	0xbeec07e3	-0.46099767
221	0x3d4fb0ba	0.05070565
222	0xbf0aa82b	-0.54162854
223	0x3ce4958c	0.02790334
224	0x3ca36ca1	0.01994926
225	0x3cfbc9c3	0.030735856
226	0x3e37acdf	0.17937039
227	0xbeff6bbe	-0.49886888
228	0xbeb591b7	-0.35462734
229	0xbe94e067	-0.29077455
230	0x3e603415	0.21894868
231	0xbca939c7	-0.020657433
232	0xbdc75c3c	-0.09734389
233	0xbdcaffcf	-0.09912073
234	0x3e41c60e	0.18923208
235	0xbcab6d95	-0.020926276
236	0xbe47d696	-0.19515452
237	0xbe177978	-0.1479243
238	0x3bcde230	0.006283067
239	0x3c747853	0.014921266
240	0x3ed4598b	0.41474566
241	0x3d0ecb6c	0.034861967
242	0xbd9161e7	-0.070987515
243	0xbec322cb	-0.38112482
244	0x3dc80689	0.097668715
245	0xbdd42a57	-0.10359638
246	0x3e8b03ea	0.27151424
247	0x3dbe9e0b	0.09307488
248	0x3e42be4a	0.19017902
249	0xbcdec7a1	-0.0271948
250	0x3d795b69	0.06087819
251	0xbca20f49	-0.01978268
252	0xbd50da95	-0.050989706
253	0x3dbb336a	0.09140666
254	0xbd6a7b19	-0.0572463
255	0x3e97fca6	0.29684943

layer3.bias f4 [32]
0	0xbdefe471	-0.117134936
1	0x3d970558	0.07374066
2	0x3d85af63	0.06527593
3	0xbdad0da4	-0.08449867
4	0x3da958bf	0.0826888
5	0x3db9c34e	0.090704545
6	0xbd9febf0	-0.078086734
7	0x3b9e498c	0.004830545
8	0x3cf6abfc	0.030111305
9	0xbc91b5ae	-0.017786827
10	0x3dbcb8f7	0.09214967
11	0xbce7b2bc	-0.02828347
12	0xbd3870b9	-0.045029376
13	0x3d14c2fb	0.03631876
14	0x3d8c94ac	0.068642944
15	0x3dcff52a	0.10154183
16	0xbe019de6	-0.1265789
17	0xbcf3049e	-0.029665288
18	0xbd5b5ecd	-0.053557206
19	0xbd339354	-0.043841675
20	0xbcfe45fa	-0.031039227
21	0xbd8ff113	-0.07028403
22	0xbd95a824	-0.07307461
23	0xbd91e17a	-0.07123084
24	0xbdb2d28d	-0.087315656
25	0x3d5fc349	0.054629598
26	0x3d8b7143	0.06808712
27	0xbd67525d	-0.056475032
28	0x3defd48c	0.11710462
29	0x3d4539ad	0.048150707
30	0xbdc4830e	-0.09595309
31	0x3d7784bb	0.060429316

bn3.weight f4 [32]
0	0x3e24a7dc	0.16079658
1	0x3edf25b0	0.4358344
2	0x3e84323c	0.25819576
3	0x3f13ac53	0.5768482
4	0x3ec3286e	0.38116783
5	0x3f1fb16f	0.6238012
6	0x3e92da68	0.28682256
7	0x3eda594c	0.42646253
8	0x3eb05ffb	0.34448227
9	0x3eb4571b	0.35222706
10	0x3f1891fd	0.5959776
11	0x3eb510fa	0.35364515
12	0x3ec6c482	0.388218
13	0x3ea90df2	0.33018452
14	0x3ee727f7	0.45147678
15	0x3ed23eb1	0.41063455
16	0x3eb2e9df	0.34944054
17	0x3e226dce	0.158622
18	0x3e83a878	0.2571447
19	0x3eb2fdc9	0.34959248
20	0x3ed66fdf	0.41882226
21	0x3ecfc220	0.40577793
22	0x3ee814b6	0.453283
23	0x3f25573a	0.6458622
24	0x3f14e1ca	0.58157027
25	0x3f17b191	0.5925532
26	0x3e95bd0c	0.29245794
27	0x3e5df418	0.21675146
28	0x3f286565	0.65779716
29	0x3f06edc1	0.52706534
30	0x3e85bb16	0.26119298
31	0x3e8848e8	0.26618123

bn3.bias f4 [32]
0	0xbeeac0a1	-0.4585009
1	0xbd9a03d1	-0.07520259
2	0xbd8292d2	-0.0637566
3	0xbeafdd54	-0.34348547
4	0xbde37cb5	-0.1110777
5	0xbeded082	-0.43518454
6	0xbeb74ea7	-0.35802194
7	0xbf00fe91	-0.5038844
8	0xbf255bef	-0.64593405
9	0xbdd6e804	-0.10493472
10	0xbe3b78ff	-0.18307875
11	0xbf1edbf8	-0.62054396
12	0xbf16c8ca	-0.5890013
13	0xbe8f05ce	-0.27934116
14	0xbdffd8f0	-0.124925494
15	0xbf094260	-0.53616905
16	0xbdb0421b	-0.086063586
17	0xbe465c8a	-0.19371238
18	0xbf042186	-0.5161365
19	0xbec70510	-0.3887105
20	0xbf0ea817	-0.55725235
21	0xbea2064f	-0.31645438
22	0xbef5c375	-0.48000684
23	0x3e4c89e3	0.19974475
24	0xbeceaa71	-0.4036441
25	0xbe639de9	-0.22228207
26	0xbefec451	-0.49759153
27	0xbe74092e	-0.23831627
28	0xbeb5e4d4	-0.35526145
29	0xbe8c91a8	-0.27454877
30	0xbf026713	-0.5093853
31	0xbebd8aa1	-0.37019828

bn3.running_mean f4 [32]
0	0xc006d32b	-2.1066387
1	0x3d907a6b	0.070545994
2	0xbff19256	-1.8872783
3	0xbfcdb29a	-1.607013
4	0xbfb61379	-1.4224693
5	0xbfc0af95	-1.5053583
6	0xbfaafd49	-1.3358546
7	0xbff4f62b	-1.9137625
8	0xbf8409ae	-1.0315454
9	0xbfac2d65	-1.3451353
10	0x3f3a0c6e	0.72675216
11	0xbfc56f9c	-1.5424685
12	0xbfb69f4a	-1.4267361
13	0xbfc2a611	-1.520693
14	0xc0421421	-3.0324786
15	0xbf9cff77	-1.2265462
16	0xbf9c6823	-1.221928
17	0xc0228074	-2.5390902
18	0xbf764da5	-0.96212226
19	0xbffb8755	-1.9650675
20	0xbfb7b2ab	-1.43514
21	0xc062b70e	-3.5424228
22	0xc0033184	-2.0498972
23	0xbfbc935e	-1.4732473
24	0xc021cf7f	-2.5282896
25	0xc018b1e4	-2.3858576
26	0xbf9e76c6	-1.2379997
27	0xbff3cc32	-1.904669
28	0xc00fb969	-2.2456915
29	0xbffb3ded	-1.9628273
30	0xbfbc8ffb	-1.4731439
31	0xbfb40256	-1.4063213

bn3.running_var f4 [32]
0	0x40698b88	3.6491413
1	0x417e522f	15.895064
2	0x410e69de	8.9008465
3	0x4150f506	13.05982
4	0x4171ef94	15.120991
5	0x4188a1dd	17.079035
6	0x40e49962	7.1437235
7	0x4114c043	9.296939
8	0x40c37942	6.108552
9	0x41011ec7	8.070014
10	0x4150e987	13.0570135
11	0x40eb866a	7.360158
12	0x404e694e	3.2251773
13	0x408c09fd	4.3762193
14	0x41abff79	21.499743
15	0x40df7324	6.9828053
16	0x41abcb6f	21.474333
17	0x418d3f1d	17.655817
18	0x40af9b73	5.4877257
19	0x40d73b32	6.725976
20	0x40d88980	6.7667847
21	0x413bdf8a	11.742075
22	0x4152a8a5	13.166173
23	0x4180db31	16.107027
24	0x40d8607e	6.761779
25	0x4146417c	12.390987
26	0x404a7aa4	3.1637354
27	0x401006a2	2.2504048
28	0x41b54cbf	22.662474
29	0x40aab8b1	5.3350453
30	0x4088313d	4.2560105
31	0x41114df2	9.08153

layer4.weight f4 [1, 32]
0	0x3c25d276	0.010120979
1	0x3d1e6dcd	0.038678933
2	0x3cf23c81	0.029569866
3	0xbce578fc	-0.028011791
4	0x3cc140d2	0.023590479
5	0xbd50809a	-0.050903894
6	0xbb907963	-0.0044090017
7	0x3d4a1aad	0.049341846
8	0xbc6ed166	-0.014576292
9	0x3d4f1d48	0.050565034
10	0xbd3399da	-0.043847896
11	0xbc21d62a	-0.009877721
12	0x3d2cf0b0	0.042221725
13	0x3cbe531a	0.023232985
14	0x3d51a9af	0.051187214
15	0x3bc84a68	0.0061123855
16	0x3c79d08f	0.015247478
17	0x3b485898	0.0030570384
18	0x3be86137	0.007091667
19	0xbd53fa35	-0.051752288
20	0xbd18462c	-0.037176296
21	0x3d91f8e8	0.07127553
22	0x3c1a6457	0.009423337
23	0x3da9c7a3	0.08290031
24	0xbce07100	-0.027397633
25	0xbcc8c870	-0.024509639
26	0x3b8d46dd	0.004311426
27	0xbd335771	-0.043784562
28	0xbd600fee	-0.05470269
29	0xbcdf2e59	-0.02724378
30	0xba093e90	-0.0005235458
31	0xbcf09c97	-0.029371543
