models/neural_net/model_artifacts/food_security_model.pth (torch, 83962 bytes, 19 tensors)

layer1.weight f4 [128, 59]
00000000: 98b2 01be 5733 97be 22a7 09bd db77 72be
00000010: 66fe f63d f22f 14be da0e 41be 135d 39be
00000020: 0f2b 193d 248d 04be c81c 58be f1e5 4abe
00000030: 32d9 8e3c 6fd0 833e 3737 0ebe 4af5 cc3e
00000040: 38bb ba3e 8fcb bc3d bbb8 c6be 63d3 713e
00000050: e619 c0bd d6d4 49be 43dd 393c 2d1b ad3e
00000060: af95 c43c 6bbc af3e 3fc0 0cbe 691f ba3d
00000070: 675a e83d d554 9ebe f910 11bf 6182 4dbd
00000080: ff07 223e 29f7 023f cbb6 2dbe 23d1 ae3d
00000090: 5044 8dbe cf34 7abe 3ab9 9bbe 5e17 993e
000000a0: 9273 143e 90e7 fcbd 2706 4c3d a47f c1bd
000000b0: 9989 6bbc 26af ebbd 2f4d a03d 032c b03d
000000c0: a60c dbbc 5d0a b0be 34fd 713e a4e4 853d
000000d0: 4ad5 0a3d 5f7a b53d f034 73be 52dd d1be
000000e0: 4a29 dbbd b665 b4bd d3b4 c23d 0774 c3be
000000f0: c900 a43a 759e a43c 95de 02be 4d39 923c
00000100: 3688 8f3e 6fab 3abc eb47 623e 248a aa3e
00000110: e95a febd 1238 e3bd 7247 a83d 55db dd3b
00000120: 84ce 6e3d ea50 e1bd e5e2 243e d411 7cbd
00000130: 4bd6 993e f675 6e3e 9ab0 903e 25a9 313e
00000140: 91fb 973e f787 8cbe 04ea e73b 16a9 24bc
00000150: 1e1c 43bd 8f3e 443d 1acb 7b3c 1fe8 7d3e
00000160: db1d 0b3e cbe0 853c 0bbb 00bd c405 7ebe
00000170: 0d91 92be b9e2 5abd 4f8f 3e3e d453 40bd
00000180: db3b d8be 6989 783e 3b85 c4be 8333 59be
00000190: 0e59 aa3d 3871 c0bd b91c a0be 2bf3 85bd
000001a0: a69a e33c e697 bebb 1137 6bbe bae1 363e
000001b0: bf53 2b3e 5a0f 2fbe f68a 833c f876 ad3d
000001c0: ee85 2b3e 9f98 053d 866c 2cbe 0f36 abbe
000001d0: 9616 643e 2165 45bf aab1 923d 54c5 013f
000001e0: 8f32 29be 1418 25bd 2bdb b0bd bcfb c23d
000001f0: a9ff 303e 1fec 603d 6126 f33d ddc2 40be
00000200: add7 3e3d ba39 0a3d 31a4 b5be bbf8 c93d
00000210: 24fd 603e f0cc 793c 2a18 a63d 4a80 91be
00000220: f0e0 843e 8fc2 9cbd c387 d1bd 28fe a83e
00000230: b80b 46be c09b 3b3e 705f 3abe 5ca5 a53e
00000240: 5dbd 25be e83c 29be 56a2 27bf 124e 83bd
00000250: f9de 963d fc36 e23d dcbe aa3d 2c12 39bf
00000260: 6ec8 c83d aa17 5fbe 5bf5 dfbe fdd6 bdbe
00000270: c17e cc3d 7dcf a2be d244 ff3d 86fe 2bbe
00000280: af4c d2be da56 5cbe 54fe 81be 8a0e 3e3d
00000290: 0e62 01bf 5b8b bb3d b6cf 653d bcef b63e
000002a0: 0070 87be 3d67 79be c99a 73bd d512 7ebe
000002b0: ea82 013e b016 b93d 1fe3 73be 89e1 87be
000002c0: 434c 9c3a 6bc6 b2bd ce0b eabd 4abf 7fbd
000002d0: aac1 38bd b6fe d2be c4af 27bf 8a3d 13be
000002e0: c946 7abe df8c 183f 18e3 14bd 4a45 943e
000002f0: 9199 873c 848a aebb 2d71 a63e de6a 76bd
00000300: b177 0bbe 1eba 35be 7006 ed3e d00e 02be
00000310: 929a b83e e03a 663e 474d 1f3e 6122 303e
00000320: c4c3 5cbd be30 e73d a1bd fd3e 4ea3 983d
00000330: 7b24 a23b e938 523e a284 a93d 177f 84bd
00000340: 3875 cd3d 8002 b73d 8e13 c0bd 7838 833e
00000350: b34e 163f 8781 bbbd b402 6a3e b2b1 833d
00000360: b0db e43e 2a02 7f3e 60b0 273e 443a a1bd
00000370: 2330 ac3e bf42 8f3e c1d4 2ebd 365b 593e
00000380: 738d 2f3e a178 fe3d 8972 82be b76f 7d3e
00000390: f883 c93d e6a8 c33d e41b 633e 9d11 de3d
000003a0: 9253 3f3e 1c77 a53f 8841 9e3d 959d b03f
000003b0: 8907 b53d cd90 a4bd 7ddd 7f3e 3c11 0d3e
000003c0: bd0c 553d 2342 37bd 4906 6cbc b3c9 15be
000003d0: 3c72 39be 72ea 2f3d e7d4 703e 3e8b 12ba
000003e0: 4770 ab3e 3d1e 90be 6b6e 493d 27a0 cb3d
000003f0: b5bd 8b3e 74b9 bdbd 6957 7bbe 1168 34be
-0.12665784 -0.29531357 -0.033606656 -0.23678534 0.120602414 -0.14471415 -0.18853322 -0.18101911
0.03739458 -0.12944466 -0.21104729 -0.19814278 0.017437551 0.2574496 -0.1388825 0.4003089
0.36470962 0.09218513 -0.38812813 0.23615794 -0.0937994 -0.19710097 0.011344257 0.33809796
0.023997156 0.3432344 -0.13745211 0.09088022 0.11345368 -0.30924097 -0.56666523 -0.050173167
0.15823363 0.51158386 -0.16964261 0.085359834 -0.2759118 -0.24434207 -0.30414754 0.2990064
0.14497212 -0.123488545 0.049810555 -0.09448174 -0.014376068 -0.11508016 0.078272216 0.086021446
-0.02673943 -0.34382907 0.23631746 0.0653775 0.033894815 0.08861231 -0.23750663 -0.40989166
-0.10701235 -0.08808462 0.09507146 -0.3817446 0.0012512441 0.02009509 -0.12780221 0.017849589
0.28033608 -0.011393412 0.22097747 0.33308518 -0.124196835 -0.11094679 0.08216752 0.006770531
0.058302417 -0.11001761 0.16102178 -0.06154044 0.30046305 0.23287186 0.28259736 0.1734968
0.29684117 -0.27447483 0.0070774574 -0.010050079 -0.047634237 0.047911223 0.015368247 0.24795578
0.13585608 0.016342541 -0.031428378 -0.24806887 -0.2862629 -0.053438876 0.18609355 -0.046954945
-0.42233166 0.24271168 -0.38382897 -0.21211056 0.08317767 -0.09396595 -0.31271914 -0.06540521
0.027783703 -0.0058164475 -0.22970225 0.17859545 0.16731165 -0.170957 0.016057473 0.08469957
0.16750309 0.032616254 -0.16838273 -0.3343968 0.22274241 -0.77107435 0.07162793 0.50691724
-0.16523193 -0.040306166 -0.08635553 0.09520671 0.17285027 0.054912683 0.118725546 -0.18824334
0.046592403 0.03374646 -0.3547683 0.09861895 0.21971565 0.015246615 0.08110078 -0.2841819
0.25952864 -0.076542966 -0.102309726 0.33006406 -0.19340408 0.18321133 -0.18200469 0.32352722
-0.16185518 -0.1652714 -0.6548208 -0.06411375 0.073667474 0.11045644 0.08337185 -0.72293353
0.09803854 -0.21786371 -0.4374188 -0.37078086 0.09985114 -0.31798926 0.12464298 -0.16796312
-0.4107413 -0.21517506 -0.2538935 0.046400584 -0.50540245 0.09157439 0.05610629 0.35729778
-0.26452637 -0.24355789 -0.059473787 -0.24811871 0.12647596 0.090375304 -0.23817109 -0.26539257
0.0011924583 -0.087292515 -0.11428033 -0.062438287 -0.045106567 -0.41209954 -0.6550257 -0.14378944
-0.24441065 0.5958995 -0.036349386 0.28959113 0.016552718 -0.005326571 0.3250822 -0.06016051
-0.13619877 -0.1774678 0.46293974 -0.12700963 0.36055428 0.22483397 0.15556823 0.17200615
-0.053897634 0.11288594 0.49558738 0.07453023 0.0049481965 0.20529522 0.08277251 -0.06469553
0.10032123 0.08936024 -0.0937873 0.2562902 0.58713835 -0.09155565 0.22852594 0.06430377
0.44698858 0.2490317 0.16375875 -0.078724414 0.33630475 0.2798061 -0.042683367 0.212262
0.17143802 0.12425352 -0.25478008 0.24749647 0.09839624 0.09553699 0.22178608 0.10843203
0.18684223 1.2926974 0.07727343 1.379809 0.08839328 -0.08035431 0.24986835 0.13776106
0.0520141 -0.044740807 -0.014405795 -0.14627723 -0.18109983 0.042948194 0.23518716 -0.0005590207
0.33484098 -0.2814807 0.04917757 0.09942656 0.27293172 -0.09263888 -0.24545063 -0.17617823

layer1.bias f4 [128]
00000000: e50c 813d b9b6 b2bd efcf 063e 9c21 a3bc
00000010: 2dcd b2bd 7f75 99bd 9bb0 043e eaa5 abbc
00000020: 73d0 943d b84c 563c 6d95 dd3d 1c89 c6bd
00000030: 0386 273d d914 673d f5cd 18bd bfe8 a0bd
00000040: 901d cbbc 5524 70bc b105 9abd 0a88 ddbd
00000050: 00d8 243d a669 833c 11db a3bd 8a3e 18bd
00000060: 106e 19bc 54f2 743d 7727 4a3d e92a ec3d
00000070: c5f8 423c ceac 193d ba21 c8bd 48e4 633d
00000080: 69dd 5dbd 95b9 c23d 815c 093d bfc1 59bc
00000090: 0a8d 45bd 596e 843d f1f6 5c3d ff24 053d
000000a0: 792b 943c 78b0 ccbd 6286 8bbd 6d04 05be
000000b0: 8b7b 3bbd 84f4 78bd 7a73 d5bc c79d c03d
000000c0: 6bfd 003d ca8b 5c3d 5008 5b3d 5eb1 d73d
000000d0: ff19 d53d 3272 cb3c ff26 e23d 63a7 e8bd
000000e0: acd4 933d 4dbd b13d 5df5 f6bd b8ee e2bd
000000f0: 2edd 91bc ffa9 603d 8438 e13d 127f f2bd
00000100: 0220 f73d e610 19bc 5164 f0bc ed7a 04bd
00000110: 4181 b13d 4ec8 803d 83b7 0f3c cd20 debd
00000120: e74a 0bbc 0de5 d6bd 929b 05be 88e4 343d
00000130: 5fe7 04bd c738 fabd 4599 e0bd ff16 ff3d
00000140: 60c2 f63d e84d bdbd 77a3 84bd 95fd 9d3d
00000150: cbc9 cdbc 3088 44bc 4451 1cbd afbb 823d
00000160: 6488 f6bd 058c f2bd 88e2 4e3d da34 7b3d
00000170: 3ecc 953d be1c 16bd a385 6ebd 3bc0 7abd
00000180: 60d8 90bd 55b5 e5bd 566c 4f3d 10c4 65bd
00000190: af15 00be 345a b63c 0654 d43d 4b04 0fba
000001a0: 8d62 d8bd b8c2 893d e8be 91bd 6939 aa3d
000001b0: 9237 b5bd 8919 f23d 4f4d 00bd 6674 f53d
000001c0: 07bf 7b3d 5c40 c83d 7771 db3c 7968 96bd
000001d0: 0f48 613c 6982 d63d 9cc9 e5bd 0c63 063d
000001e0: adc4 8e3c 8806 b43d add0 b4bd db1f c7bd
000001f0: 1dbe 0e3d 0069 0abd 383e 36bd a0f6 f83c
0.063012876 -0.08726258 0.13165258 -0.019913487 -0.087305404 -0.07493114 0.12957995 -0.020953137
0.07266321 0.013079815 0.10819516 -0.0969412 0.040899288 0.056416366 -0.03730579 -0.07856893
-0.02479437 -0.0146571 -0.07520617 -0.10816963 0.040245056 0.016041588 -0.08000768 -0.037169017
-0.00936462 0.059801415 0.049354043 0.11531622 0.011900132 0.037518315 -0.09772058 0.055637628
-0.05416623 0.09508053 0.033535484 -0.013290822 -0.04823021 0.0646636 0.05394644 0.032505985
0.018087136 -0.09994596 -0.06812741 -0.1298997 -0.045772117 -0.060780063 -0.02605604 0.09405094
0.03149168 0.05384425 0.053474724 0.10531877 0.10405349 0.024834726 0.11042594 -0.113600515
0.07218298 0.086786844 -0.12058518 -0.11080688 -0.017805662 0.05484962 0.109971076 -0.11840643
0.12066652 -0.009342408 -0.02934471 -0.032343794 0.08667231 0.06288205 0.00877178 -0.108461
-0.008501745 -0.10492907 -0.13047627 0.044163257 -0.032447215 -0.12217861 -0.10966734 0.12455558
0.12048793 -0.09243375 -0.06476491 0.077143826 -0.025120636 -0.01199536 -0.03816344 0.06383454
-0.12037733 -0.11843113 0.050509006 0.0613297 0.07314347 -0.036648504 -0.058232915 -0.06121848
-0.0707252 -0.11216227 0.050640427 -0.056095183 -0.12508272 0.02225981 0.10367589 -0.0005455657
-0.10565672 0.06726593 -0.071164906 0.08311731 -0.0884849 0.11821277 -0.031323727 0.11985092
0.061461475 0.097779006 0.026787503 -0.07344145 0.01375009 0.104740925 -0.112200946 0.032809302
0.017427767 0.08790308 -0.08828864 -0.09722873 0.034849275 -0.033791542 -0.04449293 0.030391037

bn1.weight f4 [128]
00000000: fd1d 833f 180e 613f 120b 503f 02f0 8e3f
00000010: 4db6 693f e8fc 553f d046 4f3f 815d 5f3f
00000020: 296d 693f 99c1 9d3f 4fd3 803f 9601 413f
00000030: 2118 7f3f f6ff 7e3f 7685 5e3f c792 943f
00000040: 7102 803f a743 843f ff4a 823f 8780 7c3f
00000050: ed29 663f 71c3 623f 3a9f 643f b44f 733f
00000060: 6b72 833f 0edf 783f 221e 5b3f 0495 623f
00000070: 74bf 743f f369 713f ed4b 4b3f 1699 623f
00000080: da78 843f 3bbe 803f 6e97 4e3f 1386 753f
00000090: 0839 773f 1e00 9e3f 8eaa 463f 4b02 733f
000000a0: 7e22 8c3f 0dee 7d3f 3df9 653f bca7 383f
000000b0: 00b5 763f c191 5b3f 3e0b 923f 5364 3d3f
000000c0: 09d3 5a3f 0554 743f 672c 7e3f c5ca 693f
000000d0: 6f33 7c3f 29a0 743f f8ae 7b3f 049c 6f3f
000000e0: 48b0 753f 1847 8e3f cd3f 453f 3ebd 593f
000000f0: bfa2 723f 9645 853f 5f95 803f 9084 6b3f
00000100: 41fb 8d3f 384d 713f cd45 763f d20a 783f
00000110: ada5 893f 0145 7c3f 2663 443f 79ff 843f
00000120: 7dbe 813f 2494 643f 8b93 503f f031 453f
00000130: c822 793f 63bc 743f 7b40 263f 0348 633f
00000140: ea3e 863f 0705 5a3f 26f6 793f 33d4 853f
00000150: d26c 713f c932 853f 8d38 633f 7f61 693f
00000160: a2f9 723f 0205 613f 2868 7b3f 9a91 723f
00000170: c1f5 663f 6633 7b3f 0a64 833f 9938 753f
00000180: 2b3e 683f 6bd8 793f 593a ad3f 269c 5b3f
00000190: bab9 7b3f d439 733f bcdf 6b3f f4f3 7d3f
000001a0: f9b6 813f d744 8b3f b153 203f e8e4 973f
000001b0: 5ca7 903f a37f 5d3f 7f6f 713f 02cf 4f3f
000001c0: 26d0 403f 7828 883f 3ada 4d3f c0d9 783f
000001d0: 50bf 703f e862 813f d13b 8d3f c951 5e3f
000001e0: 4cb9 7b3f 3411 513f a487 963f 92e8 813f
000001f0: 7301 4b3f 0673 803f f6a6 a43f 8e4e 703f
1.0243527 0.8791213 0.8126689 1.1166995 0.91293794 0.8358903 0.80967426 0.8725205
0.9118219 1.2324706 1.0064486 0.75393045 0.9964619 0.99609315 0.86922395 1.1607293
1.0000745 1.0333146 1.0179137 0.9863362 0.89907724 0.8857947 0.8930546 0.9504349
1.0269293 0.97215354 0.85592854 0.8850863 0.95604634 0.9430229 0.7941273 0.8851484
1.0349381 1.0058054 0.80699813 0.95907706 0.965714 1.2343786 0.77603996 0.94925374
1.0948026 0.9919136 0.8983343 0.7213094 0.96369934 0.8576928 1.1409681 0.7398121
0.85478264 0.95440704 0.992865 0.91325027 0.9851598 0.95556885 0.98313856 0.93597436
0.9597211 1.1115446 0.7705048 0.85054386 0.9477958 1.0411861 1.0045584 0.9199915
1.1092302 0.9425845 0.9620026 0.9689151 1.0753685 0.9854279 0.7671379 1.0390464
1.0136257 0.89288545 0.8147513 0.77029324 0.97318697 0.95599955 0.6494214 0.88781756
1.048795 0.8516392 0.9764122 1.0455383 0.9430667 1.0406123 0.88758165 0.9116439
0.9491216 0.87898266 0.98205805 0.9475342 0.9021874 0.981253 1.0264904 0.95789486
0.9071986 0.9759585 1.3533431 0.8578514 0.9833027 0.95010114 0.92138267 0.9920037
1.0133964 1.0880383 0.626277 1.1866732 1.1301074 0.86522883 0.94310755 0.81175244
0.7531761 1.063735 0.8041111 0.9720726 0.9404192 1.0108309 1.103388 0.86843544
0.98329616 0.81666875 1.1760144 1.01491 0.79299086 1.0035102 1.2863452 0.93869865

bn1.bias f4 [128]
00000000: 80de d4be da15 c9be 5af6 bbbe 89fe 42be
00000010: 0f46 f0be 0850 23bf 015e afbe 068b 3cbf
00000020: b7a4 debe 10c3 acbe 810a fcbe c1f6 19bf
00000030: 49b4 4ebe 2e20 03bf a66d 25bf 2694 bcbe
00000040: 9f7a adbe 8400 98be 4791 4abe cf7f a9be
00000050: 9ab2 a7be 4655 e8be 1d76 04bf 6e66 02bf
00000060: 1e80 12bf 51b0 e4be a3ae 0bbf cb25 fbbe
00000070: cdd4 21bf 3c74 f2be 4558 6bbe 2c2d 1fbe
00000080: e135 13bf c2f2 acbe 9489 bbbe cd36 cabe
00000090: aa38 dcbe 8aca 93be 2a79 cbbe b84a 10bf
000000a0: 0a12 20bf 3ca9 fcbe 6d22 c3be f1d9 55be
000000b0: edf5 01bf 4ab4 06be f1c7 26be 2113 b4be
000000c0: 7e8b 89bd f312 c0be ba52 28bf 06b5 5abe
000000d0: 01f7 fabd 344d b2be 6587 0bbf 1fd0 0ebf
000000e0: da2a d2be c988 8abe 76fb 8fbe 1486 adbe
000000f0: f208 82be 7949 bebe ba71 80be 771e f7be
00000100: c4a4 febe e261 adbe 92a3 a0be 21fe 07bf
00000110: 8a9c e8be 4d6a 89be 3bdb 8dbe 2231 4ebe
00000120: dbde 2cbf 5d6a a6bd e2af 93be 8f25 4fbe
00000130: d52e eabe 461d c2be 2f84 29be 7917 e0be
00000140: b6fa c0be 2bb3 e8be f8a9 2bbe 2faa 00bf
00000150: 4fd3 7dbc 3dfe f4be 460c 3dbe 4434 00bf
00000160: 17c4 3abe cca8 73bd 6285 1cbf 3318 a0be
00000170: e2b4 e9be d585 adbe 6a52 34bf 9885 0bbf
00000180: 29f5 bbbe 0da0 79be b7d3 80be 5494 4dbe
00000190: b4a4 b7bd 5ffd 16bf 23b7 1cbf 1134 19bf
000001a0: a45d 14bf f64c 08bf f002 72be 1f5a 7cbe
000001b0: 7471 22be 26ed 1fbf 226c 41bf faec bcbe
000001c0: d976 42be 8a67 a9be f3da d3be 4c02 c8be
000001d0: 8f0f acbe d318 cdbe 1ec4 ebbe 782b 7dbe
000001e0: 1bc3 95be 3b09 06bf a14c 29bf b68b a3be
000001f0: 7e87 60be f75f 0ebe ab0c 90be a410 1cbf
-0.41576004 -0.39274484 -0.3671139 -0.1904241 -0.4692845 -0.63793993 -0.34251407 -0.7364963
-0.43485042 -0.3374257 -0.49226764 -0.6014214 -0.20185961 -0.5122098 -0.64620435 -0.36831778
-0.33882615 -0.29687893 -0.19781981 -0.33105323 -0.3275345 -0.45377558 -0.51742727 -0.50937545
-0.5722674 -0.4466577 -0.5456335 -0.4905227 -0.63215333 -0.47354305 -0.22982891 -0.15544575
-0.5750409 -0.3377896 -0.366284 -0.39494935 -0.4301198 -0.28865463 -0.39740878 -0.5636401
-0.62527525 -0.49347866 -0.38112202 -0.2088392 -0.5076588 -0.13154712 -0.16287209 -0.35170844
-0.06716059 -0.37514457 -0.6575123 -0.21358117 -0.122541435 -0.34824526 -0.5450347 -0.5578632
-0.41048318 -0.27057484 -0.28121537 -0.33891356 -0.2539745 -0.3716543 -0.25086766 -0.4826543
-0.4973508 -0.3386374 -0.31374794 -0.53122145 -0.4543193 -0.26838914 -0.27706322 -0.2013593
-0.6752755 -0.08125756 -0.28845125 -0.20229171 -0.45738855 -0.3791296 -0.1655433 -0.43767908
-0.37691277 -0.45449194 -0.16764057 -0.5025968 -0.015492274 -0.47850218 -0.18461713 -0.5007975
-0.18238865 -0.05948715 -0.61141026 -0.31268463 -0.45645815 -0.33891168 -0.70438254 -0.5450072
-0.3671048 -0.24377461 -0.25161526 -0.20076114 -0.089669615 -0.58980364 -0.61216944 -0.5984507
-0.57955384 -0.53242433 -0.23633933 -0.24643753 -0.15863591 -0.62471235 -0.7555562 -0.3689955
-0.1899065 -0.33086807 -0.41377982 -0.39064252 -0.3360562 -0.40058002 -0.46048063 -0.24723613
-0.29250416 -0.52357835 -0.6613255 -0.31942528 -0.21926686 -0.13903795 -0.28134665 -0.6096289

bn1.running_mean f4 [128]
00000000: 2546 563c 243a 1f3d 37b3 59bd dcdd 2a3e
00000010: f355 1b3d 54ac 75bd 45b8 353e ed05 0f3d
00000020: f540 d43d 752d 083e 4924 d23e bf58 c83c
00000030: 5644 e83d 174e 853d d2a0 983d eea1 a23d
00000040: f859 f8bd 3c87 0cbe 84a4 5ebe b34d 2b3d
00000050: ad78 803d eaca 7e3e d9ae b3be b09b f7bc
00000060: a99d 5ebe 239c 563e eb8b 01be 5152 903e
00000070: f9c6 4ebd 9a2b 3cbe 7130 c5be 3727 903d
00000080: 7b31 533e 684f d73d 1a46 edbd 847c ce3c
00000090: 609d b63d 2acd 533e fdfc 7e3d 7837 6b3e
000000a0: 5d95 d1bc d577 363b 0204 bcbd a36f 51be
000000b0: 4ab6 413d bea6 1b3c 6f18 f6bd 9076 143e
000000c0: 956f 843e e670 9d3e 5bb8 953d f175 eb3d
000000d0: 3961 5c3e 3edd 543e cdc6 ae3e 01ea 243e
000000e0: 8757 743e 71e4 f03d e454 2ebd 81b2 cebe
000000f0: dc33 a03c 01b2 b63e d74b 4d3e 4e0f f33d
00000100: ea8d f13e 410b 113d dd39 31bd fec1 5ebe
00000110: edcb bf3e f356 b83d 8b3e 0dbe 2643 23be
00000120: 93bc 7b3d 89b6 683c 6bbc e0be e7ab 463e
00000130: 25b3 82be 17e9 ee3b 8b3f 21bb 51e0 4a3d
00000140: 0839 313e b38b afbd db77 3fbe b249 77be
00000150: fdf7 8e3d 629c 2f3e be3a d2bd 463a 133d
00000160: 1f28 21be a5ec 95bb 6cbb d23d c632 433e
00000170: 61ee 03be 7b34 453c 1093 fb3d bd79 4f3e
00000180: f9a4 a63d 8010 8c3d 4832 dc3d 6524 b0bc
00000190: 5c4e 09bd 3cbb 283d ddd7 743e 847c 793e
000001a0: 7dfb 28bc 632a de3d fcb2 463b a6b6 9e3d
000001b0: 295d 8dbd 2d02 163e ade2 62be c6bc 083e
000001c0: 4c00 bb3d fa8b b83d 5c3f 49be 759a 88bd
000001d0: d0e7 b1bd daf5 a83d cb83 1a3e 28da 723d
000001e0: cfeb 2ebc abba 83bc e395 903d 908c 0d3c
000001f0: 148e edbd 90b4 9abd 65c7 19be 799c 7dbe
0.013078247 0.038873807 -0.05314943 0.16686195 0.037923764 -0.059978798 0.17746074 0.03491776
0.10363952 0.1329859 0.41043308 0.02445638 0.11341159 0.06509035 0.07452549 0.07941042
-0.12126535 -0.13723463 -0.21742445 0.041822147 0.06273017 0.24882093 -0.35094336 -0.030225605
-0.2173983 0.20957999 -0.1265103 0.28187802 -0.050482724 -0.18376008 -0.3851352 0.0703873
0.20624344 0.105131924 -0.115856364 0.025205858 0.08916736 0.20683733 0.062252987 0.22970378
-0.025583917 0.0027842422 -0.09180452 -0.20452742 0.047292985 0.009500204 -0.12016379 0.14498353
0.2586638 0.30750197 0.07310554 0.11497105 0.21521463 0.20787522 0.34136048 0.1610489
0.23861514 0.11762322 -0.042561427 -0.40370563 0.019555978 0.3568268 0.20048462 0.118681535
0.47178584 0.035411123 -0.043268073 -0.2175369 0.3746027 0.09000959 -0.1379339 -0.15943584
0.061459135 0.014203676 -0.43893752 0.19401513 -0.255273 0.00729097 -0.0024604525 0.04953033
0.17306912 -0.085715674 -0.18698065 -0.24149206 0.06980894 0.17149499 -0.102651104 0.035944246
-0.15737961 -0.0045753294 0.10289654 0.19062337 -0.12883903 0.012036438 0.12283909 0.20261283
0.08136935 0.068390846 0.10751778 -0.02150173 -0.033521995 0.041194186 0.2391047 0.24363905
-0.010313866 0.108479284 0.0030319085 0.07749681 -0.069025345 0.14649267 -0.22156782 0.13353261
0.09130916 0.090110734 -0.19653076 -0.06670085 -0.08686793 0.082500175 0.15089338 0.05929008
-0.010676338 -0.016080221 0.070598386 0.00863947 -0.11599365 -0.07553971 -0.15017469 -0.24766721

bn1.running_var f4 [128]
00000000: aeff 6a3e 58a7 033e 1d6f 823e 4e5c 7c3f
00000010: 88fc c53d fa3c a83e a1fa b63e 4277 da3d
00000020: 8a20 c83d b784 cc3f 8606 7e3e 5b0d be3d
00000030: d2eb 143e ffc9 b63d d2b4 113e 1081 be3e
00000040: 3100 d73d 8d75 b23d 2b7b c43d b204 a93d
00000050: 00e0 bd3d ac67 833d 6bbf ef3e 33f5 053e
00000060: bda6 893d 28db 223e 4dda 9a3e b4a1 353e
00000070: 901a d63d b030 db3e 5a19 473f e780 dd3d
00000080: 5cc0 c43d 0d62 293e d34d 103e 74c4 293e
00000090: 9cb2 bc3d 4b58 373f 512d b43d 6498 863d
000000a0: 5fd4 ee3d e63b 0c3e dda3 373e 33ab 893e
000000b0: 4dc3 863d f43a a73d 1f35 be3d d0ba 203e
000000c0: e80d a63d 8991 c93d 0128 303e 2b89 943e
000000d0: 98b0 053f 4ed2 8e3e 20cd b23d 07aa d23d
000000e0: e5f6 9a3e cc85 3f3f 9292 cc3d 7c77 463f
000000f0: 7a12 4d3e 65ec 7b3e 4058 253e 8c28 e53d
00000100: 427d 0b3e b69f 4a3e 0e82 863e 68f3 a73d
00000110: c684 c53d 5b12 d43d a6f4 203e 361a de3d
00000120: 9244 ae3d 410d 033f 854a 3c3f 6495 083e
00000130: 5ec4 653e 2228 583e 0aad 4e3e ac8f 823e
00000140: 7f55 bc3d 092c f33d 7dd7 bc3d 7675 203e
00000150: 0a50 c13e 0534 d63d edcf 163e f936 233e
00000160: b6e5 143f 1db3 e23e 3d71 1e3e 8adc 933d
00000170: 1e49 163e b943 213e 566b 943d d74e a23d
00000180: 3ca4 3f3e 473b 8b3e ea27 8f3f d1a9 f63d
00000190: 33cf 543e 8a93 fe3d 51d8 4f3e 04d3 ad3d
000001a0: beac 8c3d 6faa 8a3d e0f5 ea3d 8f79 a83e
000001b0: f4a1 fc3e f480 d73d a141 1d3e 489e a13d
000001c0: 3e6e 253e 3d8b b73e 43e6 d03e 3896 503d
000001d0: a46c 9d3d 12fd c13d 3ea9 a23d d325 d93d
000001e0: a11e cb3e f5e6 073f 6ac6 fd3d 0999 0f3e
000001f0: 11d8 b23d 07e7 1f3f 976e 1340 dfb2 233e
0.22949097 0.12856805 0.25475398 0.98578346 0.09667307 0.3285902 0.3573809 0.10667278
0.09771831 1.5978001 0.24807176 0.09279891 0.14543083 0.089252464 0.14229134 0.37207842
0.104980834 0.08713827 0.09593805 0.08252849 0.0927124 0.06416258 0.46825728 0.13081817
0.06721256 0.15903914 0.30244675 0.17737466 0.10454285 0.42810583 0.7777306 0.10815602
0.09607002 0.1654131 0.14092188 0.16578847 0.092137545 0.716191 0.08797706 0.06572035
0.116616 0.13694724 0.17933603 0.26888427 0.065802194 0.08165541 0.09287476 0.15696263
0.08108121 0.09842212 0.1720276 0.290109 0.52222586 0.27894825 0.08730531 0.102863364
0.3026649 0.7481353 0.099888936 0.7752607 0.2002658 0.24601896 0.16146946 0.11189374
0.13622001 0.19787487 0.262711 0.08200723 0.09644465 0.103550635 0.15718326 0.10844843
0.085091725 0.511921 0.7355121 0.13338238 0.2243819 0.2110906 0.20183197 0.25500238
0.091959946 0.118736334 0.09220789 0.15669808 0.37756377 0.10459141 0.14727755 0.15938939
0.5816301 0.44277278 0.15472884 0.07219799 0.1467633 0.1574849 0.07247035 0.07925194
0.18714994 0.27193663 1.1184056 0.12044109 0.20782165 0.124304846 0.20297362 0.08487514
0.068688855 0.06770789 0.11472678 0.32905242 0.4934231 0.10522643 0.15357067 0.07891518
0.16155335 0.35848418 0.40800676 0.05092451 0.07686737 0.094720975 0.07942437 0.106029175
0.39671806 0.5308679 0.1239136 0.14023222 0.08732618 0.62461895 2.3036249 0.15986203

layer2.weight f4 [64, 128]
00000000: 251b 843c 8ae7 b53c d1cb 6dbe 9280 6dbd
00000010: 6d3d 023e 112d a4be ce2a f13d 6319 b23c
00000020: 9fec fc3d df3f 9cbd 9bfa bc3e f275 d93b
00000030: e712 97be e1d4 42be a2cd bf3c 8860 9abd
00000040: 4664 323d c884 94be 0643 c2bd d4a1 1c3e
00000050: 9534 16be 68e9 b63d 13a0 92be 195f ecbd
00000060: a3cf a43c 04ae 10be 5b89 60be d217 2ebe
00000070: 573b af3c ac57 58be 4074 8cbe 0dcb aa3c
00000080: efb5 4f3e f030 2e3e 7643 25be bf25 343d
00000090: 7ad7 163e 159f b63c 9a18 27be a20c 24be
000000a0: 32b6 073e 2972 323e 1695 cd3d b9fa 84be
000000b0: 445e 20be ddbd 6b3e d179 1fbf 0c55 cabd
000000c0: 2797 063e 802a 013d bd54 8f3e 98a4 aabe
000000d0: 4696 4abe 2672 433e a608 4b3e 2388 2a3e
000000e0: f6a8 443d 05e2 323e 0975 39be 356d b6be
000000f0: 1b10 253e c445 2e3e 86ec 8b3e af8f 293e
00000100: 6ced 113f 24aa 47bd e0bd 7cbe d990 0c3e
00000110: c2df c73c c1f5 03bd 729f a4be bdb4 a1be
00000120: ec30 74be a372 ad3c dede 13be 4305 cdbd
00000130: 7cfe cebe fcdc a23e 4bf2 ed3c d56b 2ebe
00000140: 440e d5bd ce3e 733c 683d 46bd 3606 ddbd
00000150: 9b02 2d3e 7edd 5a3e 0f9f 07be 9092 69be
00000160: 3ff3 0bbd 88d1 8d3e f14c 913d 91db a5bd
00000170: 3a70 d8be 56c6 c53d c58d a1ba cba2 0cbe
00000180: 0bfd 893e 777d 253e 3dab c2bd a35e 073c
00000190: 3882 febd e0a3 51bd f329 303e e08d 3cbc
000001a0: 271e 42be 5051 9fbd 276a 653e 12fd eabc
000001b0: 2f76 20be e62a 46be 8c66 123d 59d2 f5bc
000001c0: 1b24 85be a71f 60be 7fa4 7cbe 4bf4 08bc
000001d0: 6bb0 03be af0f b9bd ead6 5b3e 42a0 5dbc
000001e0: 253f 81be d289 bdbd 4dc4 863d 59dd 583e
000001f0: f4c7 c33c ec2a 44be 547f 9cbe 7a9b 89be
00000200: 0e0a cf3d 26ba e23d 8514 02bf 4a71 cc3d
00000210: 57f0 e33d 77da e0be a315 6f3d 6e66 9f3e
00000220: d3ee 68bc 80db 603d c622 473e 7226 8f3d
00000230: 632a 883e 44c6 673e e097 57be 770c 873e
00000240: 7cc1 56bd 54ba 693d ffcc c23c 2829 c13c
00000250: 1ce6 383e 4ebf fdbd fab8 a7be 40b4 403d
00000260: cc90 63be 76f9 b1be 9c84 68be ac1b 003e
00000270: 2b34 8b3c db16 62be b1f8 1fbf bcf4 e33d
00000280: cddb ca3d 52a2 d03d 34ff 863e 7e23 04be
00000290: 0652 8a3d c854 f63d 59cf 80be adab 16bd
000002a0: 8281 adbc 7a4b 0e3d db7a d3be 8ada b2be
000002b0: 7cf4 f53c ca08 ac3d 9389 253d 305f 66be
000002c0: f0f8 cb3c cd0b 203c 0e24 023e 0636 1bbd
000002d0: ca8d 433e d7a1 e13d c679 6dbe f444 723c
000002e0: 907f da3d a5d5 64bd 5c01 92bd 772c 0cbf
000002f0: 2705 1e3e 8cf0 c03d a3fa aa3e f86e 9bbe
00000300: d141 4b3d 414b 473e cdb2 ab3d 4673 91be
00000310: fe68 a43d 048e 293c 6096 1dbe 5b36 863d
00000320: 9e7a f03c 12e1 853e eebe d7be 93a6 8abe
00000330: 7206 2abe 1ecc 07be 3191 993d 2b98 3dbd
00000340: ef6f 2c3e 59a9 42be ae46 08bd 64b8 82be
00000350: 6b6a 2a3e 882a 1b3e 802a b93d 3a13 06be
00000360: 3c3a 1f3d 5d61 6cbe f7de 86be a397 a63e
00000370: c42d 95be 9e6f dabc 3a1f 27bb 1d01 6fbe
00000380: 46ae f03b f499 f73d 793f 253e 8352 b83d
00000390: 8d89 923e 7301 e0bd 71b6 163c 55bb 9a3e
000003a0: 425f 3e3e 89b2 d53d 92fc c3be 4ce4 e9bd
000003b0: 53f5 5fbd 6e27 36be 20b9 7dbe 3fa4 083d
000003c0: f05a b6be 78bc 34bc 6e84 d5be 506f be3d
000003d0: 78e5 92bb 5062 16bd 847e f93b 9c66 313e
000003e0: cba5 0c3e 9d9b f9be 5ccb 2fbd 5d46 bcbd
000003f0: 03d9 6a3a 3bc5 bbbc f1d8 d63d 4cf7 28be
0.016126225 0.022205133 -0.23222281 -0.057983942 0.12718745 -0.32065633 0.117757425 0.021740621
0.123498194 -0.0762937 0.36909947 0.0066363746 -0.2950661 -0.1902652 0.023413483 -0.07537943
0.04355266 -0.29007554 -0.0948544 0.15296108 -0.14668496 0.089312375 -0.28637752 -0.11541576
0.02011854 -0.14128882 -0.21927397 -0.17001274 0.0213906 -0.21127194 -0.27432442 0.020848775
0.20284246 0.17010856 -0.16139016 0.04398131 0.14730635 0.022292653 -0.16317979 -0.16020444
0.13253096 0.17426361 0.100382015 -0.25972536 -0.1566096 0.23021646 -0.6229525 -0.09879503
0.13143598 0.03153467 0.27994338 -0.333287 -0.19783887 0.19086513 0.19827518 0.16653495
0.048012696 0.17469032 -0.18111052 -0.35630193 0.16119425 0.17018801 0.2732889 0.16558717
0.570029 -0.048746243 -0.24681807 0.1372713 0.024398688 -0.03221679 -0.32152897 -0.31583205
-0.23846787 0.021172827 -0.14440486 -0.10010769 -0.4042853 0.31809223 0.029046198 -0.17033322
-0.104031116 0.014846517 -0.048398405 -0.107922 0.16895525 0.21373555 -0.1324427 -0.22809815
-0.034167524 0.27698922 0.070947535 -0.080985196 -0.42273122 0.0965697 -0.0012325576 -0.13733976
0.2695087 0.16161142 -0.09505317 0.008262309 -0.12427181 -0.051181674 0.17203502 -0.011508435
-0.18956815 -0.07779181 0.22403775 -0.028685126 -0.15670083 -0.19352302 0.035742328 -0.030007528
-0.2600411 -0.21887074 -0.24672125 -0.008359025 -0.12860267 -0.090361945 0.21468702 -0.013526978
-0.25243488 -0.09254803 0.0658041 0.21178187 0.023899056 -0.19156998 -0.30565894 -0.26876432
0.1010934 0.11070661 -0.5081256 0.09982546 0.111298256 -0.43916675 0.058370244 0.31132835
-0.014217096 0.05489683 0.19446859 0.06989755 0.26594839 0.22634226 -0.2105403 0.26376697
-0.052430615 0.057062462 0.02377939 0.023579195 0.1805653 -0.12390004 -0.32758313 0.0470469
-0.22223204 -0.34760636 -0.22706836 0.12510556 0.016992649 -0.22079031 -0.6248885 0.11130664
0.09905205 0.1018721 0.2636658 -0.12904164 0.06753926 0.120278895 -0.25158194 -0.036784817
-0.021179918 0.03473995 -0.4130467 -0.34932357 0.030023806 0.08400114 0.040414404 -0.22497249
0.024898976 0.0097684385 0.12709066 -0.037893318 0.19097057 0.110171966 -0.23190984 0.0147869475
0.10668862 -0.05586781 -0.071291655 -0.5475535 0.15431653 0.09420881 0.33394346 -0.303581
0.049623314 0.19462301 0.08383713 -0.2840826 0.08027838 0.010348801 -0.15389395 0.06553336
0.029355343 0.26148278 -0.42137855 -0.2708021 -0.16604021 -0.13261458 0.07498396 -0.046287697
0.16839574 -0.19009914 -0.03327053 -0.25531304 0.16642158 0.15152943 0.09041309 -0.13093272
0.038873896 -0.23084016 -0.26341984 0.32537565 -0.2913648 -0.026664551 -0.002550079 -0.23340268
0.0073449938 0.12089911 0.16137494 0.09000113 0.28620568 -0.109377764 0.009198771 0.30221048
0.18591025 0.104344435 -0.38278633 -0.11420497 -0.05467732 -0.17788479 -0.24777651 0.033359762
-0.35616255 -0.011031263 -0.41702598 0.09298575 -0.004482921 -0.03671485 0.007613959 0.17324299
0.1373512 -0.48751536 -0.042918548 -0.09193108 0.0008958729 -0.022921195 0.10490597 -0.16500586

layer2.bias f4 [64]
00000000: 949b a1bd 0ed8 913c 8546 413d 4213 6ebc
00000010: 3a1e a4bd 5f72 b0bd d877 83bd 659f 9cbd
00000020: 7448 253d 9e60 c6bc a461 cdbc d8ec 7c3d
00000030: bbbb 953c 9deb 81bd fa83 8c3c 6b79 1f3d
00000040: 148d 29bd d411 993c e389 0dbd 6195 9dbd
00000050: 8543 57bd d21e 47bd 4ef7 573d 9c59 a03d
00000060: b05b 78bd 42f9 513d 1fff 0dbd 5890 6fbc
00000070: 079e b63b 597b b83c bc13 7b3c d001 a7bd
00000080: e481 943c 1fce b5bd 1e4c ae3d e815 ac3d
00000090: 4ca5 a4bd a2c4 2e3d 6927 7e3d f430 62bd
000000a0: d50d a13c cf6b 2abd 0223 78bd 61af 17bd
000000b0: d2b4 1ebd 4820 83bd 0bb4 0dbb 9163 b23d
000000c0: 3c69 a63c d081 2dbb 5a4d b2bd 2385 223d
000000d0: c538 a53d 4c77 2abc 940e aa3d 2d91 af3d
000000e0: 1f1c 013d f7aa 9fbd be54 afbc 3308 b1bc
000000f0: 0e9d 093b 3302 12bd 7ac2 04bd c371 f4bc
-0.07891002 0.017803218 0.047186393 -0.014530959 -0.08013578 -0.086155646 -0.06419343 -0.076475896
0.0403523 -0.024215993 -0.025070973 0.06174931 0.018277993 -0.06343768 0.017152775 0.038934153
-0.04139431 0.018685259 -0.034555327 -0.076945074 -0.052554626 -0.048613377 0.052726083 0.07829592
-0.060634315 0.0512631 -0.03466713 -0.014621817 0.0055730375 0.022519754 0.015324529 -0.081546426
0.018128343 -0.08877205 0.08510612 0.08402616 -0.080393404 0.042667992 0.062049303 -0.055222467
0.019659916 -0.04160672 -0.06058026 -0.03703249 -0.038746662 -0.064026415 -0.0021622207 0.08710397
0.020313852 -0.002647508 -0.0870616 0.03967775 0.080674686 -0.010404419 0.08303562 0.08572612
0.03152096 -0.07796281 -0.021402713 -0.021610355 0.0020998153 -0.03564663 -0.03241203 -0.029839402

bn2.weight f4 [64]
00000000: bc91 bf3f 6d01 593f 736b 4a3f a773 983f
00000010: 3ddc 563f 0e30 783f ea2c 8a3f 2e41 9d3f
00000020: b914 713f 3d25 7f3f 479e 6c3f 44f5 6e3f
00000030: dfc7 5a3f edb1 823f 91e0 a13f f0dd 6d3f
00000040: 7b05 533f 3bfa b23f d010 823f 6f2c 853f
00000050: 4f04 873f 2c59 803f aa37 6c3f cde9 473f
00000060: 7651 523f c1d6 a73f d5fa 683f b2a0 6e3f
00000070: ba71 c23f a8be 943f 3a01 493f e028 613f
00000080: 89ca 7f3f 2319 6b3f 59eb 5d3f 5dfb 8a3f
00000090: 05ae 3d3f 44d9 9e3f d661 6c3f e878 773f
000000a0: 8f2f 763f 1a1d a33f ce6f 4c3f 61ab 8f3f
000000b0: 5491 563f 416c 733f 8c53 513f df5d 863f
000000c0: deae 863f 1239 7d3f d290 9a3f 9029 713f
000000d0: db68 803f 501b 673f e340 773f 6834 a43f
000000e0: 4072 963f cc2a 9c3f aad9 853f 54ee 9b3f
000000f0: a236 8e3f 4a9e b83f 9d77 5a3f 445f 673f
1.496635 0.847678 0.79070204 1.1910294 0.83929807 0.96948326 1.0794957 1.2285516
0.94172245 0.99666196 0.9242901 0.93342996 0.8546123 1.0210549 1.2646657 0.92916775
0.8243024 1.3982614 1.0161381 1.0404185 1.054819 1.0027213 0.92272437 0.78091127
0.8215555 1.3112413 0.9100774 0.9321395 1.5190957 1.1620684 0.78517497 0.87952995
0.9991842 0.9183523 0.8668724 1.085796 0.7409366 1.2410054 0.92336786 0.96668863
0.9616632 1.2743256 0.798581 1.1224176 0.83815503 0.9508706 0.8176811 1.0497397
1.0522115 0.9891521 1.2075446 0.94204044 1.0031999 0.9027605 0.96583384 1.2828493
1.1753616 1.220056 1.0457051 1.2182107 1.1110423 1.4423306 0.85338765 0.9037974

bn2.bias f4 [64]
00000000: 4248 a2be 4156 3b3e 3888 28be c863 cb3d
00000010: 8758 a5be fafc aabc 2c74 2b3e b48e f5bb
00000020: cfce d73d 71f9 c0bd 21ba 97bd b1d8 1abf
00000030: 249d 0cbf 643c 5d3d f81d 18be ccc3 34be
00000040: e417 e43c 61da 5cbe 4273 d9bd 4681 063e
00000050: b135 14be 06fa bdbc 07a4 81be 8740 46bd
00000060: ecb9 68bd d84c b7be d7f5 adbe 64d0 aebc
00000070: 2a1e 99bd e65c 0f3e afea 5dbe bcb2 8ebe
00000080: 1a39 9bbe 7e46 3fbe 24ba 0f3e ccd9 3bbe
00000090: 6042 9c3d 975f 52be f22c 23be d849 e9be
000000a0: b124 afbe 5288 82be 27c9 11be 3890 c4bc
000000b0: 120d 803c 2e17 30be 75d0 a1bd 07d5 babc
000000c0: ab3b 35be 6567 78be d798 833e 7050 6cbe
000000d0: e880 48bd d1f4 213e 0519 533e 3e5e 3fbe
000000e0: 8725 4dbe d3cb 83bd 1fe9 eebe 0d8e 15be
000000f0: 6b23 4abe 41a1 33bc 0cb0 1bbf 7731 7dbe
-0.31695753 0.18294622 -0.16458213 0.09931141 -0.32294104 -0.020872582 0.16743535 -0.007493818
0.105374925 -0.09422577 -0.07408548 -0.60486895 -0.5492728 0.05401267 -0.14855182 -0.17652816
0.027843423 -0.2156768 -0.10617687 0.13135251 -0.14473607 -0.02319051 -0.25320455 -0.04840138
-0.056817934 -0.35800815 -0.33976623 -0.021339603 -0.074764565 0.14000282 -0.21671556 -0.27870739
-0.30317003 -0.18679234 0.14035851 -0.18344802 0.076298475 -0.20544277 -0.15935114 -0.4556415
-0.3420768 -0.2549463 -0.1423689 -0.02399455 0.015631232 -0.17196342 -0.07901088 -0.022806657
-0.17698543 -0.24258192 0.25702545 -0.2307756 -0.04895106 0.15816046 0.20615013 -0.18688294
-0.20033847 -0.06435361 -0.46662232 -0.1460497 -0.19740073 -0.010963739 -0.608155 -0.247259

bn2.running_mean f4 [64]
00000000: 4583 77bf bf2b 6bbe c97a 7d3f 3ff6 d8bf
00000010: cc18 2cbf d05a 59bf 63e0 dabf 38c2 153f
00000020: b013 eebf ebc2 dcbf 69c2 92bf fa5b 00c0
00000030: c8eb 00c0 8118 e8bf 0904 08bf 645e e3bf
00000040: 57ed c8bf f1ee 81be a00f fcbf 330f 60bf
00000050: 7e7a 01c0 cb68 fabf 4c53 fcbf 432a c9bf
00000060: af48 3f3f a0a3 513e 6d95 babe e57a 1ac0
00000070: 1510 ee3f 83dc c3bf adb0 503f bbdc 8b3e
00000080: 1f2a 64be 7f68 7bbf c9c5 3cbc 4203 dbbf
00000090: c839 0d3e 2a3d 9cbf 6fb0 9f3f a9d9 c7bf
000000a0: 1a71 28bf db5a 943f 106a 15c0 969b a03f
000000b0: 33d0 d7be 1952 f2bf 7efe 7abe 1f99 a93e
000000c0: 296a 89bf 3aae 6e3c 8f25 7bbf 8dc3 8abf
000000d0: 5367 2dbf 4b94 07be 44bf 35be 5298 0ac0
000000e0: 9623 80bf cd30 94bf 4361 04bf 01ff e43e
000000f0: 7c8d 02bf 7ceb e9bf 20b6 25c0 5770 02c0
-0.96684676 -0.22965907 0.9901548 -1.6950148 -0.6722534 -0.84904194 -1.7099727 0.5849948
-1.8599758 -1.7246984 -1.1465579 -2.0056138 -2.014391 -1.8132478 -0.5313116 -1.7763181
-1.569743 -0.2537761 -1.9692268 -0.8752319 -2.0231013 -1.956323 -1.971292 -1.5716022
0.7472028 0.20472574 -0.36442128 -2.413751 1.8598658 -1.530167 0.81519586 0.2731684
-0.22281693 -0.98206323 -0.011521765 -1.7110369 0.13791573 -1.2206166 1.2475718 -1.56133
-0.6579758 1.1590227 -2.3345985 1.2547481 -0.4215103 -1.8931304 -0.24511144 0.33124635
-1.0735523 0.014567906 -0.98104185 -1.0840927 -0.67735785 -0.13240163 -0.17748743 -2.165547
-1.001086 -1.1577393 -0.5171091 0.44725803 -0.5099714 -1.8274989 -2.589241 -2.0381067

bn2.running_var f4 [64]
00000000: 6805 7e40 7a62 0241 b14f 1440 b860 7c40
00000010: 182d 5940 7882 8140 a53f e140 2522 b040
00000020: 8ae9 da40 5911 8740 6b2e cf40 cdcc 6440
00000030: 9e76 8740 2e90 7940 5c51 a940 508e 5f40
00000040: cd30 3741 01eb 4240 2849 9d40 dd08 df40
00000050: f219 ca40 c6fa c640 98b1 5141 f353 da40
00000060: 6a8d a940 f3ac 4240 7d22 4640 b3d4 6240
00000070: c026 9040 ecd7 cf40 40e3 6040 4fcf c440
00000080: 8b76 4b40 5d30 0641 bbb8 0441 7226 9c40
00000090: 5662 7640 802b 8540 4cca a040 86ac 5840
000000a0: 84d5 1a40 4d3f 6740 6e5e a340 6f52 ad40
000000b0: 6c5d c040 2210 d140 c63b da40 ad7f 5740
000000c0: 5813 a940 1aec 5640 bdc1 a140 64db d040
000000d0: 61fa aa40 125e b740 25e6 8240 8268 c240
000000e0: ef8f 7940 c7b0 2b41 2069 8f40 99a3 8340
000000f0: 14e0 7140 413f 7d40 578e 9040 a9c7 9240
3.96908 8.149042 2.317364 3.9434032 3.3933773 4.0471764 7.039019 5.504168
6.841008 4.2208676 6.4744163 3.575 4.2332296 3.899425 5.2911816 3.493061
11.449414 3.0455935 4.91518 6.969832 6.315667 6.218112 13.105858 6.8227477
5.2985125 3.041806 3.095855 3.5442321 4.50473 6.4951077 3.5138702 6.150306
3.1791103 8.386807 8.2951 4.879693 3.849752 4.16156 5.0246944 3.38553
2.419282 3.6132386 5.105277 5.4163127 6.011404 6.5332193 6.8197966 3.3671677
5.2836113 3.3581605 5.0548997 6.526781 5.343064 5.730233 4.090594 6.0752573
3.89941 10.730659 4.4815826 4.1137204 3.7793016 3.9569857 4.5173755 4.5868726

layer3.weight f4 [32, 64]
00000000: 8b22 6cbd 7351 ccbd 2af9 bbbe 6b92 a83d
00000010: 3606 8ebd 37d1 6abc 0465 6abd b061 7abe
00000020: 815a 143d b260 313e 9602 58bc 9de5 9d3c
00000030: 75da 7c3d 5093 413e 02d6 40be b019 073e
00000040: 619b 40be c440 b7be 9f49 9bbc 5ef5 26bd
00000050: a844 4bbc 858a 6dbd d1a4 e5bc 785e c5bd
00000060: f373 313d 9473 53be 2317 56be 27bc b93c
00000070: e87b b5be ea36 a83d eb0f bfbe 472b 6ebd
00000080: 5c0a 36bc 0563 38be 8921 91be 23f5 f33c
00000090: cd05 c0bc c38a 5fbe e816 bfbe 797c 533e
000000a0: 40c3 033d 74f6 74be c518 063e 664c 74be
000000b0: 82c5 d43c d68d b6bd 5dd1 06be 2d9f a4bb
000000c0: a695 563d 6501 123d 976b 153d aeec c6bc
000000d0: 23ea 683d 9b44 613d c7c1 aebc b85a 36bd
000000e0: 1138 cf3c b969 ccbd e024 f03d 60b1 e8be
000000f0: 7aa6 ea3d 5f36 d3bc bfa7 673d c019 0f3d
00000100: 8d59 953c 43a8 823d c3c6 c23b 4e18 873e
00000110: dcb5 92be 1b4c b1be c98b babe 4d14 22be
00000120: 7118 d4bd 0815 813d cc01 01be aa85 82bd
00000130: 8c31 e53d 26cf b23b 4791 fabd 7a96 993d
00000140: 1a3f 1bbd 330a a53d ecb9 f83d de1f fabd
00000150: 7e75 1bbe 0a49 82bd 1e44 133d 1409 063e
00000160: 2233 353e b703 d2bd 53f5 0bbe 8683 c43c
00000170: b6b5 5ebe 8383 62be 18bf 3abe a795 5fbe
00000180: 1dfd 8a3d f4ec dbbd 3859 023e 9d0f b7bc
00000190: d9a6 4abe 74d5 1ebd cd19 c6bd 934e 093e
000001a0: c29b 6e3c 380e bebd 5196 00bd 8e30 8fbd
000001b0: b509 fabd 0db1 15bb eafb 8bbe 32af 15bf
000001c0: eff9 85bd ba0a 54bd cc71 06be d95b 03be
000001d0: 295c 0f3e d1fc aa3b fc04 15bf 497c ee3d
000001e0: f7b2 a63d 5944 d03c 651f 04bf 94fe 193d
000001f0: 7ee4 d0bd b8ff e43d 9d1d 0d3e b5ec 4c3d
00000200: 63c0 2f3d fd13 f6bd 5900 a1be f11e bb3d
00000210: 849d a9be 5f03 0ebd 2374 023e 7b71 25be
00000220: bd5f c2bd 2316 013e 4816 4cbe a4b7 07be
00000230: 82c4 103d 70d3 91bd 546b c53c 2b54 8dbb
00000240: d555 2f3c d2a3 a0be 3ee5 26bd 570e e8be
00000250: c9cd 88be b61d 34be 1a00 353d 4ff5 bcbd
00000260: 1e7f c63d 95a8 44be 093a 79bd d2ea edbd
00000270: 1d52 fbbe abab 0cbe 0bd3 b3bd a863 0fbe
00000280: f6fb 89bd 9e99 32be aa09 d8bd bfef 02bd
00000290: cf45 bcbd 8bce 7b3d af80 cb3d d66b 963e
000002a0: 58f6 28be d384 c9bd aa25 9ebe df4f dabe
000002b0: 3183 5f3e c5f2 013e 7e1e d3bc 2908 7fbc
000002c0: bb76 3f3d 568e b7be fccc 2a3e f52d 8dbd
000002d0: d650 37bd 266c 1fbe 3630 06be a112 e43d
000002e0: 124c 403e e2ef a4be ed4b cd3d ac44 72be
000002f0: 62ac 59be 92d7 b93d 4a80 5a3a 021c 9ebd
00000300: ffbb 93bd 1dff 95bd cd7f 5fbd 7916 053c
00000310: 1079 f7bd d054 533e f1a3 5a3e 5755 5e3d
00000320: a6ac c1bd e12f 08be d520 88bd d467 4b3e
00000330: 31e7 09bf ba5b d3be 3613 be3d b54a cc3d
00000340: ddf9 073e a717 fd3d d233 2fba bd37 cb3c
00000350: 2499 ae3c 72ac b0bd 63ef 013e 2d12 bdba
00000360: 38fa 57bf 67f2 1c3e ed03 d33e ce10 6e3e
00000370: 10c0 553d 8523 273e 41c8 48bd b97b 8a3c
00000380: 6861 533d bdfb d33d 97e3 b6bc aeaa d43d
00000390: 8314 3e3e d738 41bd 8b63 0dbd 17a3 473e
000003a0: 11fc adbe f6ad d93d 5d37 16be 0df1 a73d
000003b0: 37fb 2dbf e0ad 703e b3b5 f33d ae18 633e
000003c0: a62f 6bbf f138 4cbd 06f9 803e f5e4 173e
000003d0: f40b 81bf 3092 f8bd 37ca 603e 142d 0dbe
000003e0: dd81 6fbe bddd 03be 8a62 63be 9e6b aa3d
000003f0: 29cf babd 5953 683e 4acd 463d a319 bfbd
-0.05765013 -0.09976473 -0.36713535 0.08231052 -0.069347784 -0.014332107 -0.057225242 -0.24451327
0.036219124 0.17322043 -0.01318421 0.019274527 0.061731774 0.18903852 -0.18831638 0.13193393
-0.18809272 -0.357916 -0.018956004 -0.040761344 -0.012406506 -0.05799343 -0.028032692 -0.09637159
0.04332347 -0.20649558 -0.20907263 0.022672726 -0.35446095 0.08213599 -0.37316832 -0.05814674
-0.011110868 -0.18006523 -0.28345898 0.029779976 -0.023440266 -0.21830277 -0.37322164 0.20652951
0.032168627 -0.2392214 0.13095386 -0.23857269 0.025973085 -0.08913772 -0.13165803 -0.005023858
0.05238881 0.03564586 0.03647956 -0.02428278 0.056863915 0.054997068 -0.021332635 -0.04452011
0.02529529 -0.099811025 0.11725783 -0.45447826 0.11457534 -0.025782762 0.05655646 0.034936666
0.018231178 0.063797496 0.0059441044 0.2638573 -0.28654373 -0.34628376 -0.36434773 -0.15828057
-0.10356224 0.063028395 -0.12598342 -0.06373151 0.11191091 0.005456823 -0.12234741 0.07499404
-0.037901975 0.08058586 0.12144837 -0.122131094 -0.15181538 -0.06361587 0.035953633 0.130894
0.17695287 -0.10254615 -0.13667803 0.023988497 -0.21749005 -0.2212048 -0.18236959 -0.21834432
0.06786559 -0.107385546 0.12729347 -0.022346312 -0.1979021 -0.038777784 -0.0967289 0.1340888
0.014563503 -0.09280056 -0.031393353 -0.06991683 -0.12208883 -0.0022841126 -0.27340633 -0.5847045
-0.06541812 -0.051768042 -0.13129348 -0.12828006 0.14 0.0052181263 -0.5821073 0.11644799
0.081396036 0.025423216 -0.51610404 0.0375963 -0.101998314 0.11181587 0.13780828 0.05003043
0.042908084 -0.12015531 -0.31445578 0.09136761 -0.33127987 -0.034671184 0.12739615 -0.1615657
-0.09490917 0.126061 -0.19930375 -0.13253647 0.035343654 -0.07120407 0.02409903 -0.004313012
0.010701616 -0.31374985 -0.040745966 -0.4532344 -0.26719502 -0.17589459 0.04418955 -0.092264764
0.096922144 -0.19204934 -0.060846362 -0.11617054 -0.49086085 -0.13737361 -0.087804876 -0.1400286
-0.06737511 -0.17441413 -0.10548718 -0.03196692 -0.091930024 0.06147627 0.09936654 0.29379147
-0.16500223 -0.09839787 -0.3088811 -0.42639062 0.2182739 0.12690265 -0.025771376 -0.01556591
0.04674409 -0.3585078 0.16679758 -0.06893531 -0.044754826 -0.15568599 -0.13104329 0.11136366
0.18779019 -0.32214266 0.10024247 -0.23659009 -0.21257165 0.0907432 0.00083351566 -0.07720186
-0.07213592 -0.073240496 -0.05456524 0.008123034 -0.12083638 0.20637822 0.21351601 0.054280605
-0.09456758 -0.13299514 -0.06646887 0.19863826 -0.53868395 -0.4128092 0.09281008 0.09975187
0.13278909 0.12358027 -0.0006683442 0.024806852 0.021313258 -0.08626641 0.12688975 -0.0014424972
-0.8436618 0.15326844 0.41213933 0.23248598 0.05218512 0.16322143 -0.049019102 0.016904699
0.051606566 0.1035075 -0.02232532 0.10384117 0.18562512 -0.047173347 -0.03451876 0.19495808
-0.33981374 0.106288835 -0.14669557 0.08200274 -0.6796145 0.23503828 0.11899891 0.22177383
-0.9186958 -0.04985899 0.2518999 0.14833434 -1.0081773 -0.12137258 0.21952139 -0.13786727
-0.23389383 -0.12877555 -0.22205558 0.083213076 -0.09121544 0.22688045 0.048535623 -0.09331062

layer3.bias f4 [32]
00000000: 00a3 5bbc 97df 693d 48ae 94bd 69ce cb3d
00000010: be5b ff3c 59c0 efbd 2b4d adbd da15 5d3d
00000020: 137a 863d f474 77bd fcc5 923c 0962 e93c
00000030: 77a9 e33d aae0 9abd 58ed a6bd 7e70 8f3d
00000040: 9397 503d 5149 023d 877b 96bd e176 cdbd
00000050: 3d5f e9bd 146c f83d f2a1 a43d 5755 3f3d
00000060: c580 34bd 7fbe 963d a361 a3bc 7833 4ebc
00000070: 1d31 24bd 2f8b 86bd 02c5 bd3c 57c1 b2bd
-0.013405561 0.057097998 -0.07259804 0.09951479 0.031171676 -0.11706609 -0.08461984 0.053975917
0.065662526 -0.06041427 0.017916672 0.02848913 0.11116307 -0.075623825 -0.081507385 0.07003878
0.050925802 0.0318082 -0.0734778 -0.1003244 -0.113951184 0.12129989 0.08038701 0.046712246
-0.044068117 0.07360553 -0.019944018 -0.012585513 -0.0400859 -0.06569516 0.02316523 -0.08728283

bn3.weight f4 [32]
00000000: a4b6 ed3e 25f8 7f3e 4391 963e 4ea4 cb3e
00000010: d3f8 c93e fe3c f73e 46d8 9b3e cef3 883e
00000020: cfdf c63e ee89 073f 01a3 ae3e 3ec7 013f
00000030: 5d2e 843e 0d3f b73e ddf3 053f ce27 b83e
00000040: d233 b43e c370 8d3e 557f d83e ebd6 e13e
00000050: d512 3b3f 6501 7d3e f0e4 c33e bc41 953e
00000060: 6058 5a3e 56cc b13e de4d a83e ec91 533e
00000070: 265a 803e a45f c83e 998f 3c3f 16b7 9d3e
0.46428406 0.24997003 0.294077 0.39773792 0.3944765 0.4828872 0.3043844 0.26748508
0.38842627 0.5294484 0.34108737 0.50694644 0.25816622 0.3579029 0.5232523 0.3596787
0.35195786 0.27625093 0.42284647 0.44109282 0.7307561 0.24707563 0.38260603 0.29151714
0.21322775 0.34726208 0.32871908 0.20661134 0.25068778 0.39135468 0.7365661 0.30803746

bn3.bias f4 [32]
00000000: 6317 26bf 7dc6 19bf 6f4d d6be 7f3f 37bd
00000010: e768 8abe b4d2 29be 91cf 0fbf 2e7d 13bf
00000020: 14cc bfbe 7fa6 05bf d7fe f0be 8674 dfbe
00000030: b6e8 3bbf 293c 2cbf 32e0 fcbd a7f4 25bf
00000040: 4236 2dbf afcc 0ebf 7766 87be 57b1 ffbe
00000050: 418d c73d 89d2 04bf 7f06 29bf 6d21 20bf
00000060: e6c4 26bf 5c10 40bd e134 00bf e89a 28bf
00000070: cf0a 1abf af5f 20bf ebda dabe 7316 11bf
-0.64879435 -0.60068494 -0.41855952 -0.04473829 -0.2703316 -0.16584283 -0.56176096 -0.57612884
-0.37460387 -0.5220718 -0.47069427 -0.43643588 -0.73401964 -0.672793 -0.12347449 -0.64826435
-0.67660916 -0.5578107 -0.26445362 -0.49939987 0.09743739 -0.5188375 -0.6602554 -0.62551004
-0.65144193 -0.0468906 -0.50080687 -0.6586137 -0.6017274 -0.62646 -0.42745146 -0.5667488

bn3.running_mean f4 [32]
00000000: e4e8 babf 1572 b7bf a4f0 e9bf 382b bcbe
00000010: bb8d 88bf 327a 43c0 f972 9abf 0329 91bf
00000020: 9880 28c0 6d8b b1bf 4672 f8bf 563d 37c0
00000030: a76f 03bf 49c4 68bf 7a6a 0dc0 a3da 7abf
00000040: b9ea 6bbf b111 8abf b806 21c0 662b 31c0
00000050: 5842 69bf e530 8cbf bc44 87bf 4c8e 83bf
00000060: 6166 9dbf a34a 05c0 6b5a 7bbf 43e4 93bf
00000070: d2e3 34bf 0767 83bf a22c b4bf beea 46bf
-1.4602323 -1.433169 -1.8276563 -0.36751723 -1.0668253 -3.0543332 -1.2066337 -1.1340641
-2.6328487 -1.3870674 -1.9409873 -2.8631186 -0.5134224 -0.9092451 -2.2096238 -0.97989863
-0.92155033 -1.0786649 -2.516035 -2.7682738 -0.9111686 -1.0952421 -1.0567851 -1.02778
-1.2296869 -2.0826805 -0.9818484 -1.1554035 -0.70660126 -1.0265816 -1.4076121 -0.7770194

bn3.running_var f4 [32]
00000000: c1ee a240 831e 1c40 3c5c 9f40 2327 d640
00000010: a8a9 d440 a3b9 2b41 86cf f83f 7bbf 3f40
00000020: 0f3e 4440 79a1 6141 95bc 5140 9c2c be40
00000030: 2c25 cf3f 8362 ac3f 96b3 0d41 f27b ba3f
00000040: 557e f03f 702f bf3f d56f e440 c99e ae40
00000050: d458 6041 8a18 b43f cf44 3440 9775 3240
00000060: a2ed ab3f 501e c640 702a 3a40 9709 5b3f
00000070: eb25 1940 d961 2640 1b5b 8f41 b042 9d40
5.091645 2.4393623 4.980009 6.6922774 6.64571 10.732821 1.9438331 2.996062
3.0662878 14.101922 3.2771351 5.9429455 1.6183219 1.3467563 8.856344 1.4569075
1.8788553 1.4936352 7.1386514 5.456883 14.021687 1.4069989 2.8166997 2.788427
1.3431895 6.1912003 2.9088402 0.8556151 2.3929393 2.5997221 17.919485 4.9143906

layer4.weight f4 [1, 32]
00000000: 62ab 6abc 72c8 f5bc 792f 403c de20 3abd
00000010: 83a5 e23c deae 3f3d b0d4 8f3b 2f60 84bb
00000020: 5250 cebc fcb3 d5bc 8a5e c13c aa2d fcbc
00000030: 40bc a6ba 54d5 a739 1524 24bd 8056 0dbb
00000040: d7c8 95bc 9eec 373b cff9 263d a869 4b3d
00000050: 852d b13d ec16 29bc 3a1a d53c 95d7 60bc
00000060: 675e e23b 70ba 1d3d 0110 303c 2ab5 d83b
00000070: 8a45 d5bb 6661 733c 95d4 b0bd 5a1f 65bc
-0.014323087 -0.030002806 0.011730068 -0.0454415 0.027666813 0.046797626 0.004389368 -0.0040397863
-0.025184784 -0.0260868 0.02360465 -0.030783493 -0.0012720898 0.00032011664 -0.040073473 -0.002156645
-0.018284244 0.0028064619 0.04076558 0.04966131 0.0865126 -0.010320406 0.026013482 -0.013723274
0.0069082263 0.03850788 0.010746003 0.0066133933 -0.006508534 0.014854765 -0.08634297 -0.013984526
